Bayes_op_model_DDBL.pt (torch, 984191 bytes, 7 tensors)

weights.0.weight f4 [172, 1404]
0	0xbec962ce	-0.39333194
1	0xbeeacf1c	-0.45861137
2	0x3e3c44e2	0.18385652
3	0x3e45d467	0.19319306
4	0x3e64fdba	0.22362414
5	0xbe521589	-0.20516028
6	0x3e9c7163	0.30555257
7	0xbeb12c11	-0.34603932
8	0xbf2bf231	-0.6716643
9	0xbeb295ce	-0.34879917
10	0xbe144f5f	-0.14483403
11	0xbe9a69ee	-0.30158943
12	0x3dd821ee	0.105533466
13	0x3eb43d3e	0.35202974
14	0xbe93b34c	-0.2884773
15	0xbc164cac	-0.009173553
16	0xbdf3ff29	-0.11913902
17	0xbe8d4a1a	-0.27595598
18	0xbea62d74	-0.32456553
19	0xbdf200a5	-0.11816529
20	0xbf55d5d8	-0.83529425
21	0xbe82c648	-0.25541902
22	0xbf7d6783	-0.9898607
23	0xbf31a58e	-0.6939324
24	0xbe21dc3c	-0.15806669
25	0xbedb6db4	-0.42857134
26	0xbf286a6d	-0.6578739
27	0xbeaad002	-0.33361822
28	0xbf09eaae	-0.5387372
29	0x3d7f5cca	0.06234435
30	0x3e8fcaa6	0.28084296
31	0xbdc15726	-0.0944045
32	0xbf2e3958	-0.6805625
33	0xbe07a054	-0.13244754
34	0xbf75f5b5	-0.96078044
35	0xbf4b6e68	-0.7946534
36	0xbd5f80f1	-0.054566327
37	0xbf0c5ea5	-0.54831916
38	0xbeb97a2d	-0.36226025
39	0x3e62595f	0.22104405
40	0x3d9c2c25	0.076256074
41	0x3e2eff23	0.17089514
42	0x3ebf668b	0.37382922
43	0xbea0b4ba	-0.31387883
44	0x3d6a9868	0.057274252
45	0x3f62f977	0.88661903
46	0x3e80c9af	0.25153872
47	0x3d967674	0.07346812
48	0x3f4417ba	0.76598704
49	0xbdcc4dff	-0.09975814
50	0xbe82464b	-0.25444254
51	0x3d663137	0.05619928
52	0xbdaeb4ac	-0.08530554
53	0xbec03005	-0.37536636
54	0xbea2a4f2	-0.31766468
55	0xbecb8dd8	-0.39756656
56	0xbf457460	-0.771307
57	0x3de5167e	0.11185931
58	0x3f56690d	0.83754045
59	0x3f0f3822	0.55945027
60	0xbc5252cf	-0.012837126
61	0xbf8e42cc	-1.1114135
62	0xbf749799	-0.9554382
63	0x3d1c4c0f	0.038158473
64	0xbe5bd02c	-0.2146613
65	0xbf4c67d8	-0.79845953
66	0xbc408b0d	-0.011751902
67	0xbe61892f	-0.22024988
68	0xbe9f08ba	-0.31061345
69	0x3c82b0b7	0.015953405
70	0x3e7fb75d	0.24972291
71	0x3eb059c5	0.3444349
72	0xbd26e711	-0.040747706
73	0x3ebf2f4e	0.37340778
74	0xbea9c653	-0.33159122
75	0x3e5ef661	0.21773674
76	0xbf2dab12	-0.6783916
77	0xbf842fb5	-1.0327059
78	0x3dd8d0bb	0.10586687
79	0xbe725795	-0.23666222
80	0xbe5b8c15	-0.21440156
81	0x3ea4b153	0.32166538
82	0xbf3d9f46	-0.74071157
83	0xbecc80be	-0.39941972
84	0xbe589e87	-0.21154223
85	0xbf1050b8	-0.5637317
86	0xbf31b547	-0.6941723
87	0xbd5b07e0	-0.053474307
88	0x3e65d7a5	0.22445543
89	0xbd21981b	-0.0394517
90	0x3c7dfd01	0.015502215
91	0xbdb993ca	-0.09061392
92	0xbf635b1b	-0.8881089
93	0x3dcb6bd1	0.09932674
94	0x3e660e51	0.22466399
95	0xbd949d16	-0.07256524
96	0xbd63bf49	-0.055602346
97	0xbf5d4a6f	-0.864417
98	0xbf7c98b3	-0.986705
99	0xbd1fe3ef	-0.039035734
100	0xbf6ec4d9	-0.93269116
101	0x3e315ba8	0.1732012
102	0xbe6c34b8	-0.23066986
103	0x3e81420e	0.25245708
104	0xbe8a66c0	-0.27031517
105	0xbe23c0d8	-0.15991533
106	0xbf2e7ed6	-0.68162286
107	0xbedacfcb	-0.42736658
108	0xbd70ee5e	-0.058821075
109	0xbef0217a	-0.4690054
110	0xbd5495dd	-0.051900733
111	0x3e3d7a6f	0.18503736
112	0xbea5d960	-0.32392406
113	0xbe5a9ab8	-0.21348083
114	0xbdd77ea7	-0.10522204
115	0xbf174b48	-0.59099245
116	0xbee64161	-0.44971755
117	0xbe1d29a0	-0.1534791
118	0xbe99d22c	-0.3004316
119	0xbf265a63	-0.6498167
120	0xbe3169df	-0.17325543
121	0xbe1e446e	-0.15455791
122	0xbeacd317	-0.337548
123	0xbd804138	-0.062624395
124	0xbf145638	-0.5794406
125	0xbf83d8bd	-1.0300518
126	0xbae2a59c	-0.0017291787
127	0xbf89ca16	-1.0764797
128	0xbd118a07	-0.035532024
129	0xbe14e386	-0.14539918
130	0xbf8047e3	-1.0021938
131	0xbf677370	-0.9041052
132	0xbe33534c	-0.17512244
133	0xbebafa60	-0.36519146
134	0xbde0a289	-0.10968501
135	0x3dd7729e	0.10519908
136	0xbea999cf	-0.3312516
137	0xbdc026ed	-0.093824245
138	0xbe0f3adb	-0.13987295
139	0xbf2a5eab	-0.665507
140	0xbf113637	-0.5672335
141	0x3d998eb0	0.074979186
142	0xbf2339d6	-0.63760126
143	0xbedef193	-0.43543682
144	0xbe604848	-0.21902573
145	0xbf605d63	-0.87642497
146	0xbf342fdc	-0.7038553
147	0x3eaa00f4	0.33203852
148	0xbf109ee0	-0.56492424
149	0x3d9d04db	0.07666942
150	0x3e12a246	0.14319715
151	0xbe9f71d4	-0.3114153
152	0xbf0f05d8	-0.5586829
153	0xbe24de29	-0.16100372
154	0x3dacce13	0.08437743
155	0xbe8787b3	-0.26470718
156	0xbc5b0918	-0.013368867
157	0xbeb95f95	-0.36205736
158	0x3e3447cb	0.17605512
159	0x3f10908b	0.56470555
160	0xbeba2018	-0.3635261
161	0xbcfe7ae4	-0.031064458
162	0x3e3db085	0.18524368
163	0xbde6afd9	-0.11264009
164	0xbf33486c	-0.7003238
165	0xbdd185ed	-0.102306224
166	0xbf066200	-0.52493286
167	0xbee38cfd	-0.44443503
168	0x3e227feb	0.1586911
169	0xbf7615eb	-0.96127194
170	0xbf49e5b3	-0.7886612
171	0xbe81b159	-0.25330618
172	0xbf51bec7	-0.8193173
173	0xbf082092	-0.531747
174	0xbec07ebd	-0.37596694
175	0xbea9f64b	-0.3319572
176	0xbebb201b	-0.36547932
177	0x3dc93210	0.09824002
178	0xbeea5dda	-0.45774728
179	0xbea60483	-0.32425317
180	0xbe2cb291	-0.16864993
181	0xbf2a1f31	-0.66453844
182	0xbe970135	-0.29493108
183	0x3e8e61e2	0.27809054
184	0x3e6973a9	0.22798027
185	0x3e19b101	0.15008928
186	0xbe028cad	-0.12748976
187	0xbf4f7a54	-0.8104603
188	0xbf4c9969	-0.79921585
189	0xbcc40508	-0.02392818
190	0xbeef06d3	-0.46684894
191	0xbeb1bf21	-0.34716132
192	0x3e8a1519	0.2696922
193	0xbf399b32	-0.72502434
194	0xbee2ed6d	-0.44321766
195	0xbeb1b73f	-0.34710118
196	0x3b9fd8e7	0.0048781517
197	0xbdb2544d	-0.08707485
198	0x3d8b512c	0.06802592
199	0x3e96ea36	0.29475564
200	0xbdf47115	-0.11935631
201	0xbd7a395e	-0.061089866
202	0xbf74704b	-0.95483845
203	0xbf625be1	-0.88421446
204	0x3d0884de	0.033329837
205	0xbf056c35	-0.52118236
206	0xbf4fd75d	-0.81187993
207	0xbe7cfcdc	-0.24705833
208	0xbf824a85	-1.0178992
209	0xbf782599	-0.9693237
210	0x3e46fa4a	0.19431415
211	0xbdcfc448	-0.101448596
212	0xbe1a0467	-0.15040742
213	0x3bd325f5	0.006443734
214	0xbf4d5dbd	-0.8022116
215	0xbefce378	-0.49392295
216	0x3df245ed	0.118297435
217	0xbebe7d6e	-0.3720507
218	0xbf53f4a3	-0.8279516
219	0xbe7ca87c	-0.24673647
220	0xbef145d5	-0.4712359
221	0xbf503971	-0.8133765
222	0xbdffdb99	-0.12493057
223	0x3e97e9bb	0.2967051
224	0xbf0a94f9	-0.54133564
225	0xbc5c05d8	-0.013429128
226	0xbecdec55	-0.4021937
227	0xbf240cd7	-0.6408209
228	0xbdfcd1c3	-0.123446964
229	0xbe2156f9	-0.15755834
230	0xbe87f82b	-0.26556525
231	0xbe10f05d	-0.14154191
232	0x3ef0e545	0.4704992
233	0x3e2c5dcf	0.1683266
234	0xbd800232	-0.06250419
235	0xbf5b659a	-0.85701907
236	0xbf6cafb6	-0.92455614
237	0x3df6f73c	0.12058875
238	0xbe735166	-0.2376152
239	0xbf04067f	-0.5157241
240	0xbe96fe8f	-0.29491088
241	0xbf4c6a70	-0.7984991
242	0xbf2177a2	-0.6307317
243	0xbde9741b	-0.113990985
244	0x3e73ac41	0.23796178
245	0xbf0e184b	-0.5550582
246	0xbe731239	-0.2373742
247	0xbe8e13f6	-0.27749604
248	0xbeb4378a	-0.35198623
249	0xbd003e89	-0.03130964
250	0xbe45ee59	-0.19329204
251	0x3e327682	0.1742802
252	0xbd9411be	-0.072299466
253	0xbec52166	-0.38502043
254	0xbe8adeb5	-0.27123037
255	0xbe2dba3d	-0.16965576

weights.0.bias f4 [172]
0	0x3fcc3bcf	1.5955752
1	0x3fc7555b	1.5572923
2	0x3fd1fd0e	1.6405351
3	0x3fd27486	1.644181
4	0x3fd4c928	1.6623888
5	0x3fd0a203	1.6299442
6	0x3fc8f21f	1.569889
7	0x3fd300cb	1.6484617
8	0x3fd29ac9	1.6453487
9	0x3fcada07	1.5847787
10	0x3fc83ccd	1.5643555
11	0x3fc5be71	1.5448743
12	0x3fc81010	1.5629902
13	0x3fc8b1dd	1.567928
14	0x3fd0268a	1.6261761
15	0x3fd16197	1.6357907
16	0x3fd6c3ac	1.6778464
17	0x3fd4c432	1.6622374
18	0x3fc8221e	1.5635412
19	0x3fc8384e	1.5642183
20	0x3fd39a88	1.6531534
21	0x3fd07fbd	1.6288983
22	0x3fca533d	1.5806652
23	0x3fd288d4	1.6448007
24	0x3fc626e4	1.5480618
25	0x3fc96533	1.5734009
26	0x3fc82aa0	1.5638008
27	0x3fd5a8cd	1.6692139
28	0x3fc73355	1.556254
29	0x3fcbf788	1.5934916
30	0x3fd4073d	1.6564709
31	0x3fd25531	1.6432248
32	0x3fd4efac	1.6635642
33	0x3fdaea18	1.710269
34	0x3fc978bf	1.5739974
35	0x3fc67126	1.550328
36	0x3fc731cc	1.5562072
37	0x3fd18eb6	1.6371677
38	0x3fd28e43	1.6449665
39	0x3fc3a087	1.5283364
40	0x3fcefe19	1.6171294
41	0x3fd7d694	1.6862359
42	0x3fd78e45	1.6840292
43	0x3fcaa06e	1.5830209
44	0x3fc6dad1	1.5535527
45	0x3fcc3e46	1.5956504
46	0x3fcadef0	1.5849285
47	0x3fd73f81	1.6816255
48	0x3fcb6c65	1.5892454
49	0x3fd6c760	1.6779594
50	0x3fd198b3	1.6374725
51	0x3fcd8363	1.6055721
52	0x3fcd1ccb	1.6024412
53	0x3fd6b129	1.6772815
54	0x3fc5c270	1.5449963
55	0x3fd515f3	1.6647323
56	0x3fd26a60	1.6438713
57	0x3fc61353	1.5474647
58	0x3fd6cc7c	1.6781154
59	0x3fd2f0b1	1.6479703
60	0x3fd050a2	1.6274607
61	0x3fcc1b82	1.5945895
62	0x3fd616d5	1.6725718
63	0x3fd637fe	1.6735837
64	0x3fd6a8cf	1.6770266
65	0x3fd23e49	1.6425258
66	0x3fcc771f	1.5973853
67	0x3fca8d37	1.5824345
68	0x3fd1bf64	1.6386533
69	0x3fcfbfbe	1.623039
70	0x3fc92bfc	1.5716548
71	0x3fca8878	1.5822897
72	0x3fd697f5	1.6765124
73	0x3fd7e4e6	1.6866729
74	0x3fcc424b	1.5957731
75	0x3fd12c46	1.6341636
76	0x3fd4eb16	1.6634243
77	0x3fd1ae3c	1.6381297
78	0x3fd1ff3b	1.6406015
79	0x3fd14b5e	1.6351125
80	0x3fcda6ab	1.6066488
81	0x3fca38aa	1.5798542
82	0x3fcbd9c9	1.5925838
83	0x3fd78550	1.6837559
84	0x3fcbaac9	1.5911494
85	0x3fc9fde0	1.5780602
86	0x3fd72850	1.6809177
87	0x3fd53d6b	1.6659368
88	0x3fcbe724	1.5929914
89	0x3fcafb03	1.5857853
90	0x3fd62bea	1.6732152
91	0x3fc375b9	1.5270301
92	0x3fd452ae	1.6587732
93	0x3fcb4640	1.5880814
94	0x3fca0bcd	1.5784851
95	0x3fd2914d	1.6450592
96	0x3fd6dfcf	1.6787051
97	0x3fd58264	1.6680417
98	0x3fd73ee8	1.6816072
99	0x3fc96d1d	1.5736424
100	0x3fd17de4	1.6366544
101	0x3fd6bf34	1.67771
102	0x3fcaf9c3	1.5857471
103	0x3fc71ae7	1.5555085
104	0x3fcd99d7	1.6062573
105	0x3fd2b79a	1.6462281
106	0x3fd255a0	1.6432381
107	0x3fd93bea	1.6971409
108	0x3fcd6d59	1.6048995
109	0x3fcd0858	1.6018171
110	0x3fd174cc	1.6363769
111	0x3fd51746	1.6647727
112	0x3fd93791	1.6970083
113	0x3fd0e2fa	1.6319268
114	0x3fd60bed	1.672239
115	0x3fd8861c	1.6915927
116	0x3fcc584c	1.5964446
117	0x3fd44b34	1.658545
118	0x3fd6cafd	1.6780697
119	0x3fd8236c	1.688581
120	0x3fccdb94	1.600451
121	0x3fcb2aec	1.5872474
122	0x3fc90697	1.5705136
123	0x3fd22bf6	1.6419666
124	0x3fc8d043	1.5688556
125	0x3fd0c994	1.6311517
126	0x3fc969ad	1.5735375
127	0x3fd52d82	1.6654513
128	0x3fd246e8	1.6427889
129	0x3fd68a97	1.6761044
130	0x3fc9a789	1.5754253
131	0x3fce658f	1.6124743
132	0x3fcb7af3	1.5896896
133	0x3fc97b3a	1.5740731
134	0x3fd81854	1.6882424
135	0x3fd764a9	1.6827594
136	0x3fcaacae	1.5833948
137	0x3fd48f55	1.6606241
138	0x3fd39396	1.6529415
139	0x3fd53c4c	1.6659026
140	0x3fd1f79f	1.6403693
141	0x3fcceb99	1.6009399
142	0x3fd89d33	1.6922973
143	0x3fd53e7d	1.6659695
144	0x3fcd3761	1.6032525
145	0x3fd1dcd8	1.6395521
146	0x3fc7c26b	1.5606207
147	0x3fc71612	1.555361
148	0x3fd31587	1.6490945
149	0x3fd583d9	1.6680862
150	0x3fcb8279	1.5899192
151	0x3fd68ee5	1.6762358
152	0x3fc9bd62	1.576092
153	0x3fcbe091	1.5927907
154	0x3fc844bf	1.564598
155	0x3fd3f4f6	1.6559131
156	0x3fd20d18	1.6410246
157	0x3fd8ab3b	1.6927255
158	0x3fd49460	1.660778
159	0x3fc5ae80	1.5443878
160	0x3fc58b15	1.543307
161	0x3fd77511	1.6832601
162	0x3fd2a699	1.6457092
163	0x3fc72a1a	1.5559723
164	0x3fd23285	1.6421667
165	0x3fc910d4	1.570826
166	0x3fcefd89	1.6171123
167	0x3fd90864	1.6955686
168	0x3fc71f0a	1.5556347
169	0x3fd614f5	1.6725146
170	0x3fd40414	1.6563745
171	0x3fd13dcd	1.6346985

weights.1.weight f4 [21, 172]
0	0xbd81dfa7	-0.063414864
1	0xbd5eb2c7	-0.054369714
2	0x3c71d827	0.014761007
3	0xbca7caf4	-0.020482518
4	0xbda4c2bb	-0.080449544
5	0xbda09470	-0.07840812
6	0xbd1a5dc9	-0.037687097
7	0xbd0cc68e	-0.034369044
8	0xbd081edf	-0.033232566
9	0xbcd44a63	-0.025914377
10	0xbd4a7976	-0.04943224
11	0xbc8ed0c1	-0.017433526
12	0xbc0be6d6	-0.008538922
13	0x3d174943	0.036935102
14	0xbce38bfc	-0.02777671
15	0xbd67fed5	-0.05663951
16	0x3d1f418e	0.038880877
17	0x3d1a1d82	0.037625797
18	0xbd750d28	-0.059827
19	0xbab50635	-0.0013811054
20	0x3d525cb1	0.05135793
21	0xbd9f4241	-0.07776309
22	0x3cf724c2	0.030168895
23	0xbcf3ef71	-0.02977726
24	0xbcbe7d31	-0.023253055
25	0xbd129948	-0.03579071
26	0xbd3c5887	-0.045982864
27	0xbcf7ae25	-0.030234406
28	0x3d0453b6	0.032306395
29	0x3d0ce440	0.034397364
30	0xbce88b7b	-0.028386822
31	0x3d7d5226	0.06184592
32	0x3d240372	0.04004235
33	0xbda337a9	-0.07969601
34	0xbd9407c4	-0.07228044
35	0x3d50a180	0.05093527
36	0xbcda66f6	-0.026660424
37	0x3becd1d9	0.007227164
38	0x3ccc980d	0.024974847
39	0x3ae6908c	0.0017590686
40	0x3d2574a4	0.04039444
41	0x3cb590c8	0.022163764
42	0x3d00d684	0.031454578
43	0x3d912a39	0.070881315
44	0xbd56f242	-0.05247713
45	0x3bc7f743	0.006102474
46	0xbc355e00	-0.011069775
47	0x3d59cb4e	0.053172402
48	0xbc13acf0	-0.0090133995
49	0xbd28f379	-0.04124782
50	0x3ba641e5	0.005073773
51	0xbd8f4684	-0.06995872
52	0xbc861512	-0.016367469
53	0xbd7aa365	-0.06119098
54	0x3d3f29f8	0.046670884
55	0xbd983d54	-0.074335724
56	0xbd075294	-0.033037737
57	0xbcc141aa	-0.023590881
58	0x3d1ab907	0.037774112
59	0xbd3b8fa6	-0.04579129
60	0xbd9414bd	-0.07230518
61	0xbd0bcecf	-0.034132775
62	0xbcc6db68	-0.024274543
63	0x3d26e8c7	0.040749338
64	0xbd7c81bb	-0.061647158
65	0xbc2e825b	-0.010651196
66	0x3be71333	0.0070518493
67	0x3d8cd2b1	0.06876124
68	0xbafa002b	-0.0019073536
69	0xbd7fe7fc	-0.062477097
70	0x3b8d1d90	0.0043065026
71	0xbcd8f5ed	-0.026484454
72	0x3d575890	0.052574694
73	0x3c9044d9	0.017610954
74	0x3d56dcd2	0.052456684
75	0x3c0965cd	0.008386088
76	0xbc909ffd	-0.017654413
77	0x3d502e86	0.05082562
78	0xbd457763	-0.04820956
79	0xbdaa6b29	-0.083212204
80	0xbda00cf9	-0.07814974
81	0xbd61d207	-0.05513194
82	0xbc007f83	-0.007842901
83	0xbd448d61	-0.047986392
84	0xbc6f1a5b	-0.014593686
85	0x3cf1b0e1	0.029503288
86	0xbd81d375	-0.0633916
87	0x3d5f309a	0.05448971
88	0x3d134e59	0.03596339
89	0x3c54cd15	0.0129883485
90	0x3d03855e	0.03210961
91	0xbc34eeed	-0.0110432925
92	0x3d07c847	0.033149984
93	0xbd85c800	-0.065322876
94	0x3a3851ac	0.0007031213
95	0xbd2d1f9f	-0.042266484
96	0xbd876750	-0.06611502
97	0x3ce886d1	0.028384598
98	0x3d36c1d5	0.044618446
99	0xbda1bb34	-0.07897034
100	0xbd30df8c	-0.04318194
101	0x3d0a918f	0.03383022
102	0x3d24c7ce	0.04022961
103	0xbccbdda5	-0.024885962
104	0x3d06192c	0.03273885
105	0xbd9e3e18	-0.07726687
106	0x3cf283b7	0.029603822
107	0x3d2588e4	0.040413752
108	0xbd92dbf0	-0.07170856
109	0xbc9c866f	-0.019107072
110	0xbda1bb60	-0.07897067
111	0x3d0c5b24	0.034266606
112	0xbd2efd9c	-0.04272233
113	0x3d34aa1d	0.044107545
114	0xbd5854c5	-0.052815218
115	0xbc962d6b	-0.018332204
116	0x3d3bd740	0.045859575
117	0xbd3df933	-0.046380233
118	0xbd30bcf7	-0.04314896
119	0xbaba52a3	-0.0014215301
120	0x3cabadef	0.020956961
121	0x3c4eff1c	0.012634065
122	0xbc41c4c5	-0.011826699
123	0xbd2bf45f	-0.041981097
124	0x3d015f35	0.031584937
125	0xbc0a30e4	-0.008434508
126	0xbbd50246	-0.006500515
127	0x3d795a10	0.060876906
128	0x3bb93cc0	0.005652994
129	0xbc99a953	-0.018757498
130	0xbd9b04ea	-0.07569297
131	0xbda7916b	-0.08182033
132	0xbd3f1201	-0.04664803
133	0xbd456724	-0.048194066
134	0xbcd75c09	-0.026289003
135	0x3d2ce330	0.04220885
136	0x3d3cabdd	0.04606234
137	0xbd8dde9c	-0.06927225
138	0xbd03b249	-0.032152448
139	0x3b8a4600	0.0042197704
140	0xbd80794e	-0.06273137
141	0x3ccc3411	0.024927171
142	0x3c592f5a	0.013255918
143	0xbd9d1011	-0.0766908
144	0x3d26537b	0.040606957
145	0x3b990ec6	0.0046709506
146	0xbd9e948c	-0.07743177
147	0x3bb521e9	0.005527724
148	0x3d191d32	0.03738136
149	0x3d523d15	0.051327784
150	0xbd85ddc0	-0.06536436
151	0x3d17aedf	0.037032004
152	0xbc9f204d	-0.019424582
153	0x3d5b7dae	0.053586654
154	0xbd8325ff	-0.064037316
155	0x3d237072	0.039902158
156	0xbd1c264e	-0.038122468
157	0x3d13a38d	0.036044646
158	0xbd9cf677	-0.07664197
159	0xbd2f54f5	-0.04280563
160	0xbd4355fc	-0.047689423
161	0x3d4bb886	0.049736522
162	0x3c9e801c	0.019348197
163	0xbd8d829b	-0.06909677
164	0xbd6bdaed	-0.05758183
165	0x3d2b3a72	0.041803785
166	0xbd2de73c	-0.04245685
167	0x3d79084a	0.06079892
168	0x3d9520d9	0.07281656
169	0xbd7f31c5	-0.062303323
170	0x3cf91a40	0.030408025
171	0x3d05d397	0.03267249
172	0x3eef2525	0.46708027
173	0x3e9114ab	0.2833608
174	0x3ed3f235	0.41395727
175	0x3ec36493	0.3816267
176	0x3edf3b15	0.43599764
177	0x3ee08a61	0.43855575
178	0x3ea9c8f7	0.33161137
179	0x3ed5c72e	0.41753525
180	0x3ea52567	0.32255098
181	0x3e983ca0	0.29733753
182	0x3eb267c4	0.34844792
183	0x3ed13737	0.40862438
184	0x3ec8f3c4	0.39248478
185	0x3ed38e4f	0.4131951
186	0x3f0e3617	0.55551285
187	0x3ea7ea46	0.32795924
188	0x3ec5bb9c	0.38619697
189	0x3ead0d43	0.3379918
190	0x3ebb73ca	0.36611778
191	0x3ea79f58	0.32738757
192	0x3ee20b95	0.4414946
193	0x3ed8266d	0.42216817
194	0x3ea00e7d	0.31261054
195	0x3edace36	0.4273545
196	0x3ea6e6de	0.32598013
197	0x3eb31401	0.349762
198	0x3e9db69f	0.3080339
199	0x3f05b111	0.52223307
200	0x3ec1ab89	0.37826183
201	0x3e9acccd	0.30234376
202	0x3ecae0f9	0.39624766
203	0x3ed9ad5a	0.4251507
204	0x3ec33e14	0.381333
205	0x3ec7a9ed	0.3899683
206	0x3efbda9c	0.49190223
207	0x3eb554a1	0.3541613
208	0x3edbd742	0.42937666
209	0x3f01796a	0.5057589
210	0x3ea571a2	0.32313257
211	0x3ef93331	0.48671868
212	0x3eabb557	0.3353679
213	0x3ea70c23	0.32626447
214	0x3ecf0482	0.40433127
215	0x3ea9d257	0.3316829
216	0x3e9d6ebc	0.30748546
217	0x3e915851	0.28387693
218	0x3eaa50b5	0.332647
219	0x3ed48a21	0.41511634
220	0x3e9c7ef2	0.30565602
221	0x3ecbe590	0.3982358
222	0x3ea79d20	0.32737064
223	0x3eb25888	0.3483317
224	0x3ebd1776	0.36931962
225	0x3eb7bb1a	0.35884935
226	0x3ea59bcd	0.3234543
227	0x3eb8df2e	0.36107773
228	0x3ed804a3	0.42191038
229	0x3eb95251	0.36195615
230	0x3eb745f5	0.3579556
231	0x3ebb89da	0.3662861
232	0x3ea42254	0.3205744
233	0x3ea341db	0.3188618
234	0x3e989f71	0.29809144
235	0x3ed50126	0.4160244
236	0x3ebc2f54	0.36754858
237	0x3eda2f43	0.42614183
238	0x3e8d7ef8	0.27635932
239	0x3eae521d	0.34047022
240	0x3ec125c7	0.37724134
241	0x3f22c752	0.6358539
242	0x3eafa3bb	0.34304604
243	0x3ecae9cf	0.39631507
244	0x3edbaf48	0.42907166
245	0x3ec56335	0.3855225
246	0x3e9b16da	0.30290872
247	0x3ed87194	0.42274153
248	0x3e98cb88	0.29842782
249	0x3ec380da	0.38184243
250	0x3ebbda6e	0.36690086
251	0x3ec0e795	0.37676683
252	0x3edcc1a1	0.43116477
253	0x3ec0eeab	0.3768209
254	0x3eaa8895	0.3330733
255	0x3e98a0ad	0.29810086

weights.1.bias f4 [21]
0	0xbcf8b65d	-0.030360395
1	0x3fbfa869	1.497327
2	0x3fbecc1c	1.4906039
3	0x3fc3053f	1.5235976
4	0x3fc3c8d6	1.5295665
5	0x3fc32744	1.5246358
6	0x3fc60bdb	1.5472368
7	0x3fc093d6	1.5045116
8	0x3fbc527d	1.4712673
9	0x3fbcc938	1.4748907
10	0x3f4c4d48	0.7980542
11	0x3f822d5c	1.0170093
12	0xbd5a01ff	-0.05322456
13	0x3fc98b68	1.5745668
14	0xbd97e763	-0.074171804
15	0x3fcc3a4e	1.5955293
16	0xbd195934	-0.037438586
17	0xbd92253f	-0.071360104
18	0xbbeef630	-0.0072925314
19	0xbd0b3d97	-0.033994284
20	0x3fbdcfab	1.4829

weights.2.weight f4 [2, 21]
0	0x3c48fbda	0.012267077
1	0x3eb12db9	0.34605196
2	0x3ee66062	0.4499541
3	0x3f19ad95	0.6003049
4	0x3ee0711f	0.43836305
5	0x3f16d203	0.589142
6	0x3ed09068	0.40735173
7	0x3f0de070	0.5542059
8	0x3f1dcc20	0.61639595
9	0x3f1e66ea	0.61875784
10	0x3ea35607	0.3190157
11	0x3e635f3c	0.22204298
12	0xbd9a6622	-0.075390115
13	0x3f0df8ee	0.5545796
14	0xbe2d6f7f	-0.16937064
15	0x3ef9b778	0.48772788
16	0xb9473d84	-0.00019001035
17	0xbe1ed869	-0.15512241
18	0xbe21c14e	-0.15796396
19	0xbe232c52	-0.15934876
20	0x3ec87c30	0.39157248
21	0xbd521b7f	-0.051295754
22	0x3f1e4788	0.618279
23	0x3efab300	0.4896469
24	0x3ec0ed44	0.3768102
25	0x3f208842	0.6270791
26	0x3e4d9260	0.20075369
27	0x3ee09e06	0.43870562
28	0x3ef6606a	0.48120433
29	0x3f056d52	0.52119935
30	0x3f1ea86b	0.61975735
31	0x3eeb7e83	0.45994958
32	0x3eab58ab	0.33466086
33	0x3d89de70	0.0673188
34	0x3f0891ad	0.53347284
35	0xbde5cdad	-0.1122087
36	0x3f0a6d28	0.5407281
37	0xbd0f611b	-0.035004716
38	0xbdcd5c17	-0.1002733
39	0x3e285a7b	0.16440766
40	0xbcab8544	-0.02093757
41	0x3f188a20	0.5958576

weights.2.bias f4 [2]
0	0x3fca776a	1.5817692
1	0x3fb4f4d3	1.4137214

weights.3.weight f4 [1, 2]
0	0x3f236534	0.638263
1	0x3f08a58a	0.5337759
