Hyper_op_model_DDBL.pt (torch, 990547 bytes, 7 tensors)

weights.0.weight f4 [173, 1404]
0	0x3cbb8e55	0.022895018
1	0x3c8c237d	0.017106766
2	0x3c6a992e	0.014318747
3	0xbaae10d0	-0.0013280157
4	0x3c92f515	0.01793913
5	0xba52d1a0	-0.0008042101
6	0xbc3d6a76	-0.011561027
7	0x3cb4f8d7	0.022091312
8	0xbaebafa0	-0.0017981417
9	0xbb35a210	-0.0027715005
10	0xbc509d2f	-0.012732788
11	0xbc9eaa80	-0.01936841
12	0xbb802b70	-0.003911428
13	0xbcd05a67	-0.025433732
14	0xbc10fd26	-0.008849418
15	0x3bddd9ec	0.006770363
16	0xbc549332	-0.012974547
17	0x3c228b92	0.0099209715
18	0x3c234b82	0.009966733
19	0x3c37b776	0.011213174
20	0x3c24ce4e	0.0100589525
21	0xbc30faf8	-0.010802023
22	0xbbf618b0	-0.007510267
23	0x3c548ff6	0.012973776
24	0xbc780fe4	-0.015140507
25	0x3cbdfca9	0.023191767
26	0x3c4fc87e	0.012682078
27	0x3c9b8dc7	0.018988503
28	0x3caf3c37	0.021391017
29	0x3c868467	0.016420556
30	0xbc213ca0	-0.009841114
31	0x3cab7613	0.020930326
32	0x3c66e2e6	0.014092183
33	0x3c802835	0.015644172
34	0xbb717840	-0.0036845356
35	0x3c895fef	0.016769378
36	0x3c1e2596	0.009652516
37	0x3a0ca260	0.0005364772
38	0xbc8491ee	-0.016182866
39	0x3c25993e	0.010107337
40	0x3cb0c8eb	0.02158018
41	0xbc7056d4	-0.014669139
42	0xbcb79f82	-0.022414926
43	0xbc831a41	-0.01600373
44	0xbc9edf14	-0.019393481
45	0x3c232f72	0.009960042
46	0xbc906b9c	-0.017629437
47	0x3bd5b834	0.006522203
48	0xbc8e112a	-0.017342169
49	0xbcac393c	-0.021023385
50	0xbbf5a358	-0.0074962787
51	0x3c83d48b	0.01609256
52	0xbc89d4dc	-0.016825132
53	0x39c732c0	0.0003799405
54	0xbca79356	-0.020455997
55	0xbcb04e08	-0.021521583
56	0x3c9fdcaf	0.01951441
57	0x3c92ac71	0.017904492
58	0xbc8b2f44	-0.016990311
59	0xbc3501be	-0.011047779
60	0x3a1d2320	0.0005994309
61	0x3cc54fb5	0.024085859
62	0xbbd5306c	-0.0065060165
63	0x3be73a2c	0.007056495
64	0xbca27028	-0.01982887
65	0xbcc348f9	-0.023838507
66	0x3c4cf612	0.01250984
67	0x3ada2310	0.001664253
68	0x3cd31f03	0.025771623
69	0x3cc9cf17	0.024634881
70	0x3a64cde0	0.00087281875
71	0x3c4e696a	0.012598375
72	0x3c9e98df	0.019360004
73	0xbbd7a034	-0.006580377
74	0xbb22b680	-0.0024828017
75	0xbcd21120	-0.025642931
76	0x3ad936c0	0.0016572103
77	0xbcaa7907	-0.020809663
78	0x3b8f58e4	0.0043746103
79	0x3b6a8f68	0.0035791043
80	0xbc4f783a	-0.012662942
81	0x3c5f85f6	0.013642779
82	0xbc0fa9cc	-0.00876851
83	0x39bd2d40	0.00036082603
84	0x3b9a3d74	0.004707033
85	0xbc5baa9b	-0.013407375
86	0x3c9881a9	0.018616514
87	0xbb19fa50	-0.0023495145
88	0xbb8a0788	-0.0042123236
89	0xbc7cb2a4	-0.015423451
90	0xbcbcc2cc	-0.023042105
91	0xbb933bc4	-0.0044932086
92	0x3c6a472a	0.014299193
93	0xbcaad8b6	-0.020855289
94	0xbc490730	-0.01226978
95	0xbcd07c70	-0.025449961
96	0xbcccb1b6	-0.024987083
97	0xbc2e46d0	-0.010637
98	0x3bf80694	0.0075691435
99	0xbbe1f69c	-0.006895853
100	0x3cca6baf	0.02470955
101	0xbb8f8cd4	-0.0043808017
102	0xbcce2ee6	-0.025168847
103	0xbc8da8b2	-0.017292354
104	0xbc9d9308	-0.019235149
105	0x3cc15b33	0.023603057
106	0x3ba299c4	0.004962178
107	0xbc7f3abf	-0.015577971
108	0x3bd0c714	0.006371388
109	0x3bc81c74	0.0061069075
110	0xbcd931d7	-0.026513023
111	0x3c7e9a06	0.015539652
112	0xbc11cd46	-0.008899039
113	0xbc8c7124	-0.017143793
114	0x3c886c07	0.016653074
115	0xbcc829cc	-0.024433993
116	0x3c5af4c2	0.013364019
117	0xbc7204d7	-0.014771662
118	0x399cb140	0.000298867
119	0x39d901c0	0.0004139077
120	0x3c177852	0.009244995
121	0xb917b480	-0.00014467724
122	0xbb7b7e58	-0.0038374867
123	0x3a635640	0.0008672215
124	0xbb05f1f0	-0.0020438395
125	0x3cc415ed	0.023936236
126	0xbc81db70	-0.015851706
127	0x3cd9e251	0.026597174
128	0x3bdf8514	0.006821284
129	0xba74a9c0	-0.0009333156
130	0xbc9b01dc	-0.018921785
131	0x3b99047c	0.004669724
132	0xbc938f5c	-0.018012695
133	0xbc5bb66b	-0.013410191
134	0x3c0e013a	0.008667285
135	0x3c6bdc16	0.014395734
136	0xbca749ee	-0.020420995
137	0xbc689317	-0.014195225
138	0x3c917ebb	0.017760625
139	0xbaf3d840	-0.0018603876
140	0xbc3d208d	-0.011543405
141	0xbcc77fef	-0.024352996
142	0x3c847d97	0.016173167
143	0x3c3bc092	0.011459487
144	0xbcbed247	-0.023293627
145	0x3c6a9efe	0.014320133
146	0x3cceac67	0.025228692
147	0xbca65f7d	-0.020309204
148	0xbc9d9446	-0.019235741
149	0x3c470216	0.012146493
150	0x3c009996	0.007849118
151	0x3c566b8a	0.013087163
152	0x3b4b2dc0	0.003100261
153	0x3c2dc6f2	0.010606514
154	0x3cc0f717	0.023555322
155	0xbc944e3c	-0.018103711
156	0x3cc123e3	0.023576682
157	0xbcd71507	-0.026255144
158	0xb98cf7c0	-0.0002688747
159	0xbc6aa5be	-0.014321743
160	0xbc5693f0	-0.0130967945
161	0xbab9c580	-0.001417324
162	0xbbfa75e8	-0.00764345
163	0xbc991574	-0.018686987
164	0xb7992400	-1.8255785e-05
165	0x3cae1505	0.021250257
166	0x3cb4f663	0.022090143
167	0xba9d21b0	-0.0011988189
168	0x3ca833cb	0.02053251
169	0x3b854f48	0.004068289
170	0xbcacdd47	-0.021101607
171	0x3c664e1a	0.014056707
172	0xbcc985e4	-0.024599977
173	0x3b411468	0.0029461626
174	0x3cbab6a1	0.022792162
175	0xbc077e64	-0.00826988
176	0xbc48459f	-0.01222363
177	0xb84b2e00	-4.8441812e-05
178	0x3c9fb715	0.01949648
179	0x3c784d5a	0.015155161
180	0xbc0732ea	-0.008251885
181	0x3a221a60	0.000618374
182	0x3bcfbd94	0.006339738
183	0xbc9441a3	-0.018097704
184	0xbc8678b6	-0.016414981
185	0xbc02dc00	-0.007987022
186	0xbc5c1b53	-0.013434249
187	0xbbf38524	-0.007431643
188	0xba088960	-0.0005208459
189	0xbc9a7006	-0.018852245
190	0x3c300fea	0.010745982
191	0x3c92a15f	0.017899213
192	0x3b41aea8	0.0029553566
193	0xbcb16c5a	-0.021658111
194	0x3c4f166a	0.012639621
195	0x3a09bec0	0.0005254559
196	0x3cc257a7	0.023723437
197	0xbc9c8ef3	-0.019111132
198	0xbca62e73	-0.02028582
199	0x3bd547b4	0.006508792
200	0xbc713a8b	-0.01472343
201	0xbbca41f8	-0.006172415
202	0xbc5d7927	-0.0135176545
203	0x3c9f48cf	0.019443898
204	0x3bffbd9c	0.0078045856
205	0xbac52340	-0.0015040413
206	0xbc83c654	-0.016085781
207	0xbccda7da	-0.025104452
208	0xbb69d8c8	-0.003568219
209	0x3c6e0076	0.014526477
210	0x3c9789b1	0.018498274
211	0xbcd2e144	-0.02574218
212	0x3c5d836a	0.013520101
213	0xbcbf657a	-0.023363817
214	0xbbc2ec94	-0.0059486125
215	0x3bdefbcc	0.006804919
216	0x3c0ded8e	0.0086625945
217	0xbcb127a8	-0.021625355
218	0x3bbea93c	0.005818514
219	0xba24fee0	-0.0006294083
220	0xbb3742c8	-0.0027963389
221	0x3c2f0c86	0.010684138
222	0x3c92d96b	0.017925939
223	0x3cc6fcbd	0.024290437
224	0xbccfe1ef	-0.025376288
225	0x3b74b738	0.0037340652
226	0x3c47dc4a	0.012198517
227	0x3cad0bbb	0.021123758
228	0xbc52c889	-0.012865194
229	0x3c62895e	0.013826696
230	0xbb85a828	-0.0040788837
231	0xbc65fa25	-0.01403669
232	0xbc284624	-0.010270629
233	0xbbc5f6cc	-0.0060413834
234	0xbcd4ac73	-0.025961136
235	0x38dcaa00	0.000105220824
236	0xbbe58004	-0.007003786
237	0xbb8ad588	-0.0042368807
238	0xbc2b3918	-0.010450624
239	0x3c1b52d6	0.009480199
240	0x3cc52af1	0.024068328
241	0x3cae596b	0.021282872
242	0x3cd2e253	0.025742685
243	0xbc9210e2	-0.017830316
244	0x3c04d57a	0.008107537
245	0x3c2e922a	0.010654965
246	0xbc84e2f0	-0.016221493
247	0xbba45390	-0.0050148442
248	0x3b3931e8	0.0028258506
249	0xbc9025a9	-0.017596083
250	0x3bac9c9c	0.0052676927
251	0x3c9186c9	0.017764466
252	0xbb592930	-0.0033136122
253	0xbc01d64c	-0.0079246275
254	0x3b81636c	0.0039486196
255	0xbc819a89	-0.015820758

weights.0.bias f4 [173]
0	0x3cd24e59	0.025672125
1	0xbc904123	-0.017609185
2	0x3c9f1379	0.019418465
3	0xbc9d083c	-0.019168966
4	0xbcb933ed	-0.022607768
5	0x3caada09	0.02085592
6	0xbc59b301	-0.013287307
7	0x3c325f4a	0.0108869765
8	0xbc3eefe5	-0.011653875
9	0xbc23b0f4	-0.009990919
10	0x3cbc30d9	0.022972511
11	0xbc923799	-0.017848777
12	0xba8474e0	-0.0010105632
13	0x3b292ea8	0.0025815163
14	0xbc8f7151	-0.017510088
15	0x3caf64bf	0.021410344
16	0xbc3be8e0	-0.011469096
17	0xbcbd546d	-0.023111546
18	0x3bb3ed04	0.005490901
19	0x3c75ec9e	0.015010027
20	0x3c59c7ea	0.013292292
21	0xbcb30ae4	-0.021855779
22	0x3c095e7e	0.008384345
23	0xbcc8ca8c	-0.024510644
24	0x3ca55d99	0.020186232
25	0xbcd2d2ff	-0.025735376
26	0x3cb6aa73	0.022298073
27	0xbc5678b7	-0.013090304
28	0xbcb4e1d7	-0.022080345
29	0xbc9e43b6	-0.019319396
30	0xbbc83aa8	-0.006110508
31	0xbc8686e9	-0.016421752
32	0x3c1682ee	0.0091864895
33	0x3cb6256f	0.022234647
34	0xbcda5bc4	-0.026655085
35	0x3caaee61	0.020865621
36	0x3ac0e360	0.00147162
37	0x3c0ee006	0.008720404
38	0x3ab2abe0	0.0013631545
39	0x3c2bdce2	0.010489674
40	0x3aaa85f0	0.0013009887
41	0xbcb6998e	-0.022290017
42	0xbc86299f	-0.016377268
43	0x3c40cf42	0.011768164
44	0x3c83f01d	0.016105706
45	0xbb993be0	-0.004676327
46	0xbb368558	-0.0027850475
47	0xbca39e7e	-0.019973036
48	0x3c745cca	0.014914701
49	0xbbf91598	-0.007601451
50	0x3c8c23f3	0.017106986
51	0xbc17c226	-0.009262597
52	0xbcc9a3f2	-0.024614308
53	0xbc91aa76	-0.017781477
54	0xbc9f7592	-0.019465242
55	0x3c8e513b	0.017372718
56	0xbbc62fc8	-0.0060481764
57	0x3c99d0d9	0.018776344
58	0xbc42186c	-0.011846643
59	0x3cb8645f	0.022508798
60	0x3c082fb6	0.008312156
61	0xbc8fd132	-0.017555807
62	0xbc4bf055	-0.012447436
63	0xbcbc897a	-0.023014773
64	0x3b41f038	0.0029592644
65	0x3cb2d6a1	0.021830859
66	0xbb0f1f08	-0.0021838564
67	0x3c66b3aa	0.014080921
68	0x3cd0f1b5	0.02550588
69	0x3cc6d7f7	0.024272902
70	0xbc1a5f20	-0.009422094
71	0x3b00dd30	0.0019663088
72	0x3c9b0b83	0.018926388
73	0xbc0025a8	-0.007821478
74	0xbc12047a	-0.0089122
75	0x3abedfc0	0.0014562532
76	0x3ca24927	0.019810272
77	0x3c3ac4ce	0.011399461
78	0x3ba76174	0.005108053
79	0xbc840e20	-0.016120017
80	0xbaa99d30	-0.0012940522
81	0x3b96c9bc	0.0046016853
82	0x3c9c88d9	0.019108223
83	0x3c3f034a	0.011658499
84	0x3c8d0189	0.017212646
85	0x3c86a823	0.016437596
86	0x3caa5631	0.020793052
87	0xbafdfc60	-0.0019377582
88	0xbc469e41	-0.012122692
89	0xbcd3d7b9	-0.0258597
90	0x3aa8ecc0	0.001288794
91	0x3c8d3f67	0.017242147
92	0x3c9b9199	0.018990325
93	0xbc6a2990	-0.014292136
94	0x3cb2958d	0.021799827
95	0xbc9ebf5e	-0.01937836
96	0x3bbdd03c	0.0057926457
97	0xbc54e1c3	-0.012993279
98	0xbc160a32	-0.009157704
99	0xbc33fe18	-0.010985874
100	0x3c1730ea	0.009227971
101	0x3c61395e	0.013746588
102	0xbc7f961a	-0.015599752
103	0x3c6d174e	0.014470888
104	0x3c8a2a17	0.016865773
105	0x3c6cf36e	0.014462335
106	0xbbeaa154	-0.007160345
107	0x3c8c5025	0.01712806
108	0xbca41f6d	-0.020034516
109	0x3ca4c6b1	0.020114275
110	0xbcccca0d	-0.02499869
111	0xbcaad1e1	-0.020852031
112	0x3bace7cc	0.005276656
113	0xbc803512	-0.015650306
114	0x3ca1b4d3	0.019739544
115	0x3bc2cce4	0.005944835
116	0x3cd0ff25	0.025512287
117	0xbcb1f053	-0.02172104
118	0xbb827134	-0.00398078
119	0x3a9b2290	0.0011835862
120	0x3ba39fc4	0.004993411
121	0xbb602c88	-0.003420623
122	0xbb6c3398	-0.0036041494
123	0x3ba3bc64	0.004996823
124	0x3cd21c43	0.025648242
125	0xbb8be9dc	-0.0042698216
126	0xbbc31a68	-0.0059540756
127	0xbc206662	-0.009790035
128	0x3cb98569	0.022646623
129	0xbb9bc360	-0.004753515
130	0xbc70b6eb	-0.014692049
131	0xbc8be1dc	-0.017075472
132	0x3c1cbd16	0.009566566
133	0xbc50c396	-0.012741944
134	0x3ca0c889	0.019626873
135	0xbc9e5407	-0.019327177
136	0xbc4d9433	-0.0125475405
137	0xbc76e76a	-0.015069822
138	0x3b3678a0	0.0027842894
139	0xbc781553	-0.015141803
140	0xbcafdc16	-0.02146725
141	0xbcd60616	-0.026125949
142	0x3c798952	0.015230494
143	0x3c77672a	0.01510028
144	0xbc95adbe	-0.018271323
145	0xbbb609a4	-0.0055553485
146	0xbcba0869	-0.022709088
147	0x3ca10c0d	0.019659067
148	0x3c45a982	0.01206434
149	0xbcd84254	-0.026398815
150	0xbbfac3f8	-0.007652756
151	0x3a057640	0.0005091168
152	0xbbd423ac	-0.006473979
153	0xbc1574ea	-0.009122113
154	0x3a7f3860	0.00097358786
155	0x3c938b13	0.018010652
156	0xbbf0f1ec	-0.007353058
157	0x3cd13f8b	0.025542995
158	0x3c0b769a	0.008512164
159	0x3c8af563	0.016962713
160	0xbca3f9d6	-0.020016592
161	0xbcaf912a	-0.021431524
162	0x3ca152d1	0.01969281
163	0x3c0b2216	0.008492013
164	0x3c98f313	0.018670594
165	0xbc3945d0	-0.0113081485
166	0x3c1e7526	0.009671485
167	0xbbb6257c	-0.0055586677
168	0xbcd11924	-0.025524683
169	0xbaec68e0	-0.0018036626
170	0x3c42886a	0.011873344
171	0xbcd624e7	-0.026140643
172	0x3c187aca	0.009306619

weights.1.weight f4 [21, 173]
0	0x3d035bf6	0.032070123
1	0xbd818699	-0.063245006
2	0xbd3cb38a	-0.04606966
3	0x3d4e843a	0.05041907
4	0xbd9b5a1a	-0.07585545
5	0xbcd94d52	-0.026526127
6	0x3d43e7a4	0.04782833
7	0x3d70fd46	0.05883529
8	0xbd934445	-0.07190756
9	0x3d748926	0.059701107
10	0xbd6af7e0	-0.0573653
11	0xbd7912cc	-0.06080894
12	0x3d7ed96a	0.06221906
13	0xbd23b6c8	-0.039969236
14	0xbd7b6fb3	-0.06138582
15	0xbbfbffb0	-0.0076903924
16	0xbd1bd958	-0.038049072
17	0xbd14d477	-0.036335435
18	0x3ccdaa84	0.025105722
19	0xbd13fc9f	-0.03612959
20	0x3d12b5a6	0.035817765
21	0x3cea5134	0.028603174
22	0x3d2f4bf8	0.04279706
23	0x3b3818e0	0.0028090999
24	0x3d52d596	0.051473223
25	0xbd838581	-0.06421948
26	0x3ca889dc	0.020573549
27	0xbc26fab0	-0.0101916045
28	0xbaf6f400	-0.0018841028
29	0xbc2f2d48	-0.010691948
30	0xbd34cbe3	-0.044139754
31	0x3cc4a130	0.024002641
32	0x3d00f4b8	0.031483382
33	0x3d95a3bd	0.07306621
34	0xbbcb1950	-0.006198086
35	0x3d8c408b	0.06848248
36	0x3d9538d3	0.07286229
37	0xbbf58ff0	-0.0074939653
38	0x3d5e8c5a	0.05433307
39	0xbd2ab68a	-0.04167799
40	0xbd7951d8	-0.060869068
41	0xbcb3715a	-0.021904636
42	0xbd54b4b7	-0.051930156
43	0x3c7f37e8	0.015577294
44	0xbcb5fd94	-0.022215642
45	0x3d14d284	0.036333576
46	0x3d99ea29	0.07515366
47	0xbd053f99	-0.032531355
48	0xbd1d3e82	-0.03838969
49	0x3d095d2c	0.03353612
50	0xbd5ea0a4	-0.054352418
51	0xbc984bac	-0.01859077
52	0x3d3f92d2	0.046770878
53	0x3d691eae	0.056914024
54	0x3d6aa0ee	0.05728238
55	0x3b91e940	0.0044528544
56	0xbd8feb53	-0.070273064
57	0x3d44ef80	0.048079967
58	0xbd5c18fe	-0.053734772
59	0xbd673c10	-0.056453764
60	0x3d97b5a5	0.07407693
61	0x3d2a2dd2	0.041547604
62	0xbd8a888e	-0.06764327
63	0xbd6ab2fe	-0.057299607
64	0xbcea53c2	-0.028604392
65	0xbd650ab4	-0.05591841
66	0x3cd032f0	0.025414914
67	0x3d981a49	0.074268885
68	0xbd618a96	-0.055063806
69	0xbd7d7fa2	-0.0618893
70	0x3d305252	0.043047257
71	0x3d7bd9d2	0.061487027
72	0x3cd47940	0.025936723
73	0x3d1e846a	0.0387005
74	0xbc7f7430	-0.015591666
75	0x3d7415c2	0.059591062
76	0xbd2e49e2	-0.04255093
77	0xbd1197c8	-0.03554514
78	0x3c9efef4	0.01940868
79	0x3d926f75	0.07150165
80	0x3c37f1c0	0.011227071
81	0x3ca4126c	0.020028315
82	0x3d547436	0.05186864
83	0x398ef600	0.00027267635
84	0xbc414a08	-0.011797436
85	0xbcfe0b02	-0.031011108
86	0x3d78be7e	0.060728543
87	0xbb7432a0	-0.003726162
88	0xbd1e6885	-0.038673896
89	0xbd634616	-0.05548676
90	0xbd82e681	-0.063916214
91	0xbd0652ef	-0.032793935
92	0x3d422fb6	0.047408782
93	0xbd11079a	-0.03540764
94	0xbb923360	-0.004461691
95	0x3d097cfc	0.03356646
96	0x3c413b00	0.011793852
97	0xbc9bf8fc	-0.019039623
98	0x3d1cc9d0	0.0382784
99	0x3c84b558	0.016199753
100	0x3c6b8278	0.014374368
101	0x3d9a5e53	0.07537522
102	0x3d925e39	0.07146878
103	0x3d68dfa6	0.056853913
104	0xbc2331b0	-0.009960577
105	0x3d03fa74	0.032221273
106	0xbd81d002	-0.063385025
107	0xbd6d23da	-0.05789552
108	0x3d8464cf	0.0646454
109	0xbcfa9d86	-0.030592691
110	0xbd2a919e	-0.041642778
111	0xbcdee1b6	-0.027207237
112	0x3d97ca6f	0.07411658
113	0x3d66cada	0.056345798
114	0xbcea2530	-0.028582186
115	0xbd8edcf5	-0.06975738
116	0x3d849919	0.064745136
117	0xbd8dcb73	-0.069235705
118	0x3d88df0d	0.066831686
119	0xbcf6f298	-0.030144975
120	0xbc5fe7c0	-0.013666093
121	0xbbf069b0	-0.0073368177
122	0x3d311bda	0.043239452
123	0xbcceb7a6	-0.025234055
124	0xbd04f004	-0.03245546
125	0xbd8ef2f9	-0.06979937
126	0xbd39db6a	-0.045375265
127	0x3d1e8f24	0.03871073
128	0x3d93d071	0.072174914
129	0xbc94b968	-0.018154815
130	0x3d9101cf	0.07080423
131	0x3d55998a	0.05214838
132	0xbd52865a	-0.05139766
133	0xbd10a1f4	-0.0353107
134	0x3d6505b6	0.05591365
135	0x3ba11d70	0.0049168393
136	0xbd8a20f7	-0.06744569
137	0x3d464d12	0.048413344
138	0x3c1064c0	0.008813083
139	0x3b9e6700	0.004834056
140	0xbc9af2d6	-0.018914621
141	0xbc1d7e28	-0.0096125975
142	0x3d162b98	0.036662668
143	0x3c679f30	0.014137074
144	0xbd784154	-0.060609177
145	0xbca92bca	-0.020650763
146	0x3c183ac8	0.009291358
147	0xbd7d3f79	-0.06182811
148	0x39cfe600	0.0003965348
149	0xbd97a3b2	-0.07404269
150	0x3d6285a6	0.05530324
151	0xbd5550e3	-0.052079093
152	0x3d1e3ac6	0.03863027
153	0x3bcc7fb0	0.0062408075
154	0xbcfa0106	-0.030518066
155	0xbd5b3163	-0.053513896
156	0x39247600	0.00015684217
157	0xbd85c0e7	-0.06530934
158	0x3d511f42	0.0510552
159	0xbc6c739c	-0.01443186
160	0xbd857974	-0.06517306
161	0x3d508d5a	0.050916053
162	0xbcffc46a	-0.031221587
163	0xbd8ecb70	-0.069723964
164	0xbd670b4a	-0.05640725
165	0x3d2045dc	0.039129123
166	0x3d2677f2	0.040641733
167	0x3cf95584	0.030436285
168	0x3d2467f2	0.040138192
169	0xbc2d3978	-0.010572784
170	0x3bbd7e20	0.0057828575
171	0xbb461bc0	-0.0030228943
172	0x3d41836a	0.047244467
173	0xbd1f25b3	-0.038854312
174	0xbd19816c	-0.037476942
175	0x3c2121a0	0.009834677
176	0x3bcfb330	0.0063384995
177	0x3d6a9da2	0.057279237
178	0x3d21795a	0.03942237
179	0xbcc32af4	-0.023824193
180	0x3d1cec42	0.03831125
181	0xbd20acaf	-0.039227184
182	0xbcca6984	-0.024708517
183	0x3d946d69	0.07247431
184	0xbcc9da64	-0.02464027
185	0xbd3098aa	-0.04311434
186	0xbaf39180	-0.0018582791
187	0xbca791dc	-0.020455293
188	0xbc1b9a58	-0.009497248
189	0xbc9d0218	-0.019166037
190	0x3d745572	0.0596518
191	0xbd64c444	-0.055851236
192	0x3d34b116	0.044114195
193	0x3d90a99d	0.07063601
194	0x3d988fd5	0.07449309
195	0xba83ea00	-0.0010064244
196	0x3d2c1c60	0.042019248
197	0x3cbfe390	0.02342394
198	0xbb052e40	-0.0020321757
199	0xbd41b36d	-0.047290254
200	0xbd8d9c91	-0.06914628
201	0xbd4e24d8	-0.050328106
202	0xbd62b9aa	-0.055352844
203	0xbcead126	-0.028664183
204	0xbcfc339e	-0.030786332
205	0x3d7b184a	0.06130246
206	0x3c6d3f70	0.014480457
207	0xbcce276c	-0.025165282
208	0xbd4d8d52	-0.0501836
209	0xbd8cc610	-0.06873715
210	0x3c8eab78	0.017415747
211	0x3d5af39a	0.053454973
212	0xbd7aa9dd	-0.06119715
213	0xbd0b085c	-0.03394352
214	0xbc430d40	-0.0119050145
215	0xbd04844a	-0.032352723
216	0xbcc8883c	-0.024479024
217	0x3d2b8172	0.041871496
218	0xbc07ada8	-0.008281149
219	0x3cc3fdd4	0.023924746
220	0xbd8aa345	-0.067694224
221	0x3d591482	0.052998073
222	0x3ce51c64	0.02796764
223	0x3d13b7fe	0.03606414
224	0x3d48c38a	0.049014606
225	0xbc7715f8	-0.015080921
226	0x3ce6060c	0.028079055
227	0x3cf371a4	0.029717274
228	0xbd18c02d	-0.037292648
229	0x3c98fb68	0.018674567
230	0xbbeb5ce0	-0.0071827024
231	0x3d69d65e	0.057089202
232	0xbd17f3a9	-0.037097607
233	0x3d237716	0.03990849
234	0xbd8b3fde	-0.06799291
235	0x38a73000	7.972121e-05
236	0xbd40758d	-0.046987105
237	0xbc1998b0	-0.009374782
238	0x3d8320b7	0.06402724
239	0xbc931a0c	-0.017956756
240	0xbd84c3af	-0.06482636
241	0x3ba74960	0.0051051825
242	0xbd805edb	-0.06268092
243	0xbd8ddc74	-0.06926814
244	0x3d97dabd	0.07414768
245	0x3d344fa2	0.044021256
246	0xbca1edda	-0.019766737
247	0xbd2c9a1c	-0.042139158
248	0xbcba5ff4	-0.022750832
249	0x3b495260	0.0030719265
250	0xbd0b035a	-0.033938743
251	0xbd41e48d	-0.047337104
252	0x3c5cae10	0.013469234
253	0xbc01b9e8	-0.007917859
254	0xbd4362c4	-0.047701612
255	0x3d09c9e2	0.033639796

weights.1.bias f4 [21]
0	0x3d807c71	0.06273735
1	0x3d085a22	0.033289082
2	0xbcb7c5b2	-0.022433136
3	0xbd0e9e73	-0.034819078
4	0xbc1600b0	-0.009155437
5	0xbd5e26bc	-0.05423616
6	0x3abad340	0.0014253631
7	0xbd3561e0	-0.044282794
8	0x3d846465	0.06464461
9	0x3d68c5c6	0.056829236
10	0xbd7225d4	-0.059118107
11	0x3d6e3936	0.05816003
12	0x3d86d747	0.0658403
13	0x3c3fc6b8	0.011705093
14	0x3cc68de8	0.024237588
15	0xbc581d40	-0.0131905675
16	0x3d65972a	0.056052364
17	0x3ca189ec	0.019719087
18	0xbcf1b4fe	-0.02950525
19	0xbb6c0aa0	-0.0036017075
20	0x3cacd268	0.021096423

weights.2.weight f4 [2, 21]
0	0xbe171662	-0.14754632
1	0xbd9a37d4	-0.075301796
2	0xbc7834e0	-0.015149325
3	0xbd019ccc	-0.031643674
4	0x3d605914	0.05477245
5	0x3d993ef2	0.07482709
6	0xbde8a8df	-0.113603346
7	0x3db1b0ee	0.08676325
8	0x3e5a2a6d	0.21305247
9	0x3e34a899	0.1764244
10	0xbd2c88a4	-0.0421225
11	0x3d022228	0.031770855
12	0x3e599a95	0.21250375
13	0x3e31b34f	0.17353557
14	0x3e3b7ff1	0.18310525
15	0xbe5bce94	-0.21465522
16	0xbddf6f3f	-0.109098904
17	0x3d94f58a	0.07273395
18	0x3d0c3dac	0.034238502
19	0x3e24a947	0.16080199
20	0xbe2b930c	-0.16755313
21	0xbe04f670	-0.12984633
22	0x3e030f71	0.12798859
23	0x3d5477e4	0.05187215
24	0xbe558b62	-0.20853952
25	0xbd1acc0c	-0.03779225
26	0x3ca0c828	0.019626692
27	0x3e0e40dd	0.13891931
28	0x3e00afa7	0.12567006
29	0x3d1eba04	0.038751617
30	0xbe1d04cd	-0.15333863
31	0xbdc7cc4c	-0.097557634
32	0xbe512ac7	-0.20426475
33	0x3e3c37a9	0.18380608
34	0xbc2ff990	-0.010740653
35	0xbe042057	-0.12902962
36	0xbe255d6d	-0.1614892
37	0xbd874e2a	-0.066067055
38	0x3ca96b88	0.020681158
39	0xbcd047b0	-0.025424808
40	0x3e1152cf	0.14191745
41	0x3d7862ac	0.060640976

weights.2.bias f4 [2]
0	0x3e111fa1	0.14172222
1	0x3ce35bb8	0.027753696

weights.3.weight f4 [1, 2]
0	0xbeb65e07	-0.35618612
1	0x3e8a15ac	0.2696966
