Hyper_op_model_DDBL.pt (torch, 990547 bytes, 7 tensors)

weights.0.weight f4 [173, 1404]
000000 66 37 35 bc d4 bb a8 3b 98 15 0b bc fc 3c f5 3b
       -0.011060571 0.005149344 -0.008489035 0.0074840765
000010 54 51 98 3b f8 e3 0c bb 1a 7f 0e bc 12 9f 34 3c
       0.004648367 -0.0021498185 -0.008697296 0.011024253
000020 93 b1 9b bc f8 a1 1c 3b d2 ed 2e 3c 08 10 93 3b
       -0.019005572 0.0023900252 0.010676818 0.004487995
000030 2b f7 72 bc d7 9b bc 3c 5a 48 b8 bc 9c 8d e9 bb
       -0.014829437 0.023023529 -0.022495437 -0.007127477
000040 36 8e af bc 40 a0 bf 3a da e5 c2 bc d5 05 c3 3c
       -0.021430116 0.0014619902 -0.023791242 0.023806492
000050 c6 37 ba bc 9a f2 a4 bc 16 59 27 3c ac a2 d1 bc
       -0.022731673 -0.020135213 0.010214111 -0.025590263
000060 a3 7a 9f bc 00 61 b8 b9 35 0b d1 3c 56 21 33 3c
       -0.019467657 -0.00035167485 0.02551804 0.010933241
000070 b0 15 e5 3a f3 b7 86 3c c0 52 a2 3a 91 af ac 3c
       0.0017477777 0.016445136 0.001238428 0.02107981
000080 50 34 c3 bb f7 a1 bf 3c 2e 67 04 bc ec 0b 9e 3b
       -0.005957164 0.02339266 -0.008081241 0.0048231985
000090 1e 3e 3e 3c 20 87 2c bc dd 88 99 3c 8a ec 56 3c
       0.01161149 -0.010530263 0.01874202 0.013117919
0000a0 a3 b9 86 bc d1 c3 a1 3c cf 9e 76 bc e6 66 8d bc
       -0.01644594 0.019746693 -0.015052511 -0.01726098
0000b0 14 b8 ef bb f3 b6 cf 3c 00 9e bc b9 13 40 b8 3c
       -0.007315645 0.025355792 -0.00035975873 0.02249149
0000c0 30 b3 36 3b cb d0 c2 3c 8d c9 be 3c 3b 1d 7a bc
       0.00278778 0.0237812 0.023289466 -0.015265758
0000d0 4f 92 da bc 88 dc 97 bb 2c 99 93 3b 9a 16 45 3c
       -0.026681093 -0.0046344437 0.0045043435 0.012029314
0000e0 80 19 e7 39 1f 60 c6 3c dc 90 99 3b 3c 6d 9d 3b
       0.00044078752 0.024215756 0.004686458 0.0048042815
0000f0 3f df c1 3c e0 1f 67 bc d6 b5 a9 bc 7f cf c7 3c
       0.023666022 -0.014106721 -0.020716589 0.024390934
000100 39 41 bf 3c 40 5c 66 3a ee 54 3c 3c 6a d5 af bc
       0.02334653 0.000878755 0.011494858 -0.021464068
000110 fd 5f 43 bc 9c fb e9 3b f7 13 a0 3c 40 75 9c bb
       -0.011924741 0.00714059 0.01954077 -0.0047747195
000120 7b 1f d9 3c 0b cd a3 3c af 1d c7 bc 47 47 c2 3c
       0.026504269 0.019995233 -0.024306146 0.023715628
000130 1c ad b6 bc 8c bc c7 3b 2b 62 b4 3c 40 3b 6f 3b
       -0.022299342 0.0060954746 0.022019466 0.0036503822
000140 01 8f ca 3c 6d bc 3b bc e1 15 cb 3c c3 f5 82 3c
       0.024726393 -0.011458498 0.024790706 0.015986329
000150 00 f8 6f 3b b0 7f e1 3a 50 01 c0 bb bc 44 8d bb
       0.0036616325 0.0017204192 -0.0058595315 -0.0043111723
000160 95 77 89 3c 64 a7 a6 3b 25 70 a8 bc dc d4 d3 3b
       0.016780654 0.0050858725 -0.020561287 0.006464584
000170 a6 57 0f bc ff f5 a6 3c 66 3d 73 bc 0a 5e 7f 3c
       -0.008748924 0.020380972 -0.0148461815 0.0155863855
000180 04 de 0a bc 50 6c 2f bb 0f 1d 6c bc 51 2f ac 3c
       -0.008475784 -0.002676744 -0.014411225 0.021018656
000190 a1 31 86 3c a0 77 0b bc 18 ba 5f 3b 60 f4 c4 bb
       0.016381087 -0.008512408 0.003413802 -0.006010577
0001a0 71 ec 99 3c 40 d2 cf 3a c1 c1 aa 3c 2e 7c 72 3c
       0.018789502 0.0015855506 0.020844342 0.014800115
0001b0 de e0 94 bc a1 59 d0 3c 16 df 67 3c b0 81 93 bb
       -0.018173631 0.025433363 0.014152309 -0.004501544
0001c0 ca 80 30 bc d4 b5 e6 3b ff ac d3 bc b0 01 b1 ba
       -0.010772893 0.0070407186 -0.025839327 -0.0013504531
0001d0 8d 3a a6 bc 1c 4f ad bc 58 2b 43 bb 20 8d a1 ba
       -0.020291591 -0.021155886 -0.0029780474 -0.0012325384
0001e0 05 d8 a5 3c 00 50 ae 3a f3 3f c4 bc ec bf c5 bc
       0.020244608 0.0013298988 -0.023956275 -0.024139367
0001f0 ac 78 a2 bb cf 83 87 3c 18 e3 4e 3b 0b 8a ba 3c
       -0.004958233 0.016542343 0.0031568464 0.022770902
000200 67 90 8e 3c 45 2e 9e bc 31 4c c8 3c 43 4b ae 3c
       0.01740284 -0.019309172 0.024450393 0.021276122
000210 76 4a 00 bc 7d 56 77 bc 0a 4c 26 3c 4e 0d 82 bc
       -0.007830253 -0.015096304 0.010149965 -0.015875485
000220 b7 dd be 3c 8c cb b2 bc e1 10 92 3c 0c 83 c0 bb
       0.023299081 -0.021825574 0.017830314 -0.005874997
000230 82 84 34 3c d4 fe cd 3b 90 60 81 3a 23 48 c5 3c
       0.01101792 0.0062864814 0.0009870697 0.024082249
000240 b0 f5 25 bb 46 eb 4f 3c 9c 38 a6 bc a7 08 99 3c
       -0.0025323443 0.012690371 -0.020290665 0.018680884
000250 c0 43 7a ba f4 9e e8 3b 97 e6 ae bc 63 dd c9 bc
       -0.00095468387 0.007099027 -0.021350188 -0.024641698
000260 80 74 c0 bb 98 cf 8c 3b 36 0d 60 bc 63 d3 c3 3c
       -0.005873263 0.004297208 -0.013675025 0.023904508
000270 7d 98 a4 3c fe 9d 5d 3c 16 c6 51 3c eb 49 38 bc
       0.020092243 0.013526438 0.012803575 -0.011248092
000280 29 a5 4a bc 3d 50 b9 3c 80 f2 de bb ac 4f da 3b
       -0.012368479 0.022621268 -0.0068038106 0.0066623297
000290 fe c8 10 3c a8 5e c5 bb 9a 2c 42 3c ec 71 ae bc
       0.008836983 -0.006023247 0.011851454 -0.021294557
0002a0 dd 9b 48 bc 0f 62 d0 3c ce f7 3b 3c b4 c6 36 bc
       -0.012244192 0.025437383 0.011472655 -0.011155773
0002b0 76 d4 03 3c 58 f7 b1 bb e7 10 a3 3c d8 85 78 3b
       0.00804626 -0.005431097 0.01990552 0.0037921574
0002c0 3c 59 89 3b 22 54 4c bc aa e3 bb bc 4e 97 58 3c
       0.004191546 -0.012471231 -0.022935707 0.013219668
0002d0 ff c7 d7 3c 02 e4 03 bc 51 92 aa 3c 6e 41 44 3c
       0.026340483 -0.008049967 0.020821722 0.01197849
0002e0 61 34 af 3c 19 d2 90 3c 1a 3d 95 bc 75 df cf bc
       0.02138728 0.017678307 -0.018217612 -0.025375107
0002f0 66 46 25 3c 9f 02 5b bc c0 c5 86 3b 09 d3 92 3c
       0.010087585 -0.013367324 0.004112929 0.017922895
000300 9e 83 09 3c d0 5f b4 bb 7c 40 a0 3b db 68 bd 3c
       0.008393196 -0.005504586 0.0048904996 0.023121288
000310 94 69 d3 bb 30 f2 1d 3b b8 e2 72 bb dc 69 2a bc
       -0.006451795 0.0024100654 -0.0037061404 -0.010401215
000320 ef 22 a2 bc f6 77 34 3c 1d 28 ba bc b2 99 61 3c
       -0.019792048 0.011014929 -0.022724206 0.013769554
000330 a8 e7 b9 bb 7e c4 32 3c 76 f7 cc bc 40 a0 80 bc
       -0.0056733675 0.010911105 -0.025020342 -0.015701413
000340 c0 aa de b9 98 49 d4 bc 86 82 d7 bc 50 3c 57 bc
       -0.00042470358 -0.025913998 -0.026307356 -0.013136938
000350 b4 c3 b7 bc 00 57 bc 3a c0 58 f7 39 00 a7 d5 39
       -0.022432186 0.001436919 0.00047177635 0.0004075095
000360 8c 4c 96 bb a3 6b ba bc 7a c7 cf bc 04 09 80 bc
       -0.004586762 -0.022756403 -0.025363673 -0.015629299
000370 b0 8a b3 bc 3c 03 c4 bc f6 d7 6a 3c b6 3d 03 3c
       -0.021916717 -0.023927324 0.014333716 0.0080103185
000380 e7 e1 8a 3c 22 19 03 3c 6f 19 b6 3c 30 f0 a8 bb
       0.016953422 0.008001598 0.022228925 -0.0051555857
000390 70 de 2d bc c8 6d 39 bb 78 21 12 bb c2 23 2e 3c
       -0.010612115 -0.0028294194 -0.002229778 0.0106286425
0003a0 06 c8 37 3c b1 8e 82 3c e0 d1 a6 ba 01 8c 75 bc
       0.011217123 0.015937181 -0.0012727343 -0.014986993
0003b0 bc 57 b6 bb 3f 4b bd 3c 04 97 e1 bb 52 00 48 3c
       -0.005564658 0.02310717 -0.0068844575 0.012207108
0003c0 82 90 c7 bc 89 5e 89 3c 84 71 a6 bc b6 98 78 3c
       -0.024360899 0.01676871 -0.0203178 0.015173128
0003d0 54 a7 f3 3b 00 d6 d9 bc 22 02 c8 bc 4e 7f 53 3c
       0.0074357186 -0.026591301 -0.02441508 0.01290877
0003e0 7a 87 63 3c c3 a2 92 3c cc ea a0 bc 30 91 c7 ba
       0.013887281 0.017899876 -0.01964321 -0.0015225764
0003f0 94 ba 8d bc b5 0d c1 bc fa fb 31 bc 52 ed 10 3c
       -0.017300881 -0.023566106 -0.010863299 0.008845644

weights.0.bias f4 [173]
000000 69 83 3c bc e5 29 90 3c fe 4e 2c 3c 51 0d ac 3c
       -0.01150594 0.017598102 0.01051688 0.021002444
000010 66 0b b0 bc bc 56 99 bc 1a c4 48 3c cc e6 8a bc
       -0.02148981 -0.018718116 0.0122537855 -0.016955756
000020 02 80 55 3c 68 6e ca bb 81 e8 bd bc 18 2c 56 bc
       0.013031008 -0.006177712 -0.023182156 -0.013072036
000030 88 74 29 bc 37 7c bb bc 58 35 92 bb f6 c8 4d bc
       -0.010342725 -0.022886379 -0.0044619255 -0.01256012
000040 ec 22 78 bc a0 3f 5c 3b 71 0e a2 3c 24 34 96 3b
       -0.015145045 0.003360726 0.019782277 0.0045838524
000050 06 6c 39 3c 80 7d 90 bb c9 5c 66 bc 4c 9f d0 bb
       0.011317259 -0.004409492 -0.014060208 -0.006366646
000060 84 28 06 bc 6c d8 bb bc 28 d8 5f bb af bb a1 3c
       -0.008188371 -0.022930346 -0.0034155939 0.019742815
000070 0a 6f 0b 3c 15 fd 84 bc 84 91 9c bb 4c 14 91 bc
       0.0085103605 -0.01623396 -0.004778089 -0.017709874
000080 d8 c3 d3 bb 9a 2d 74 bc 38 be 27 3b 0b ca 4d bc
       -0.0064625554 -0.01490345 0.0025595557 -0.012560378
000090 52 1f 36 3c 48 0f 21 bb ab 1f c6 bc 96 c0 4c 3c
       0.011115866 -0.0024575759 -0.024185022 0.012497088
0000a0 8b ab b5 bc e9 42 be 3c 49 2f 3b bc 00 d4 cf b8
       -0.022176525 0.023225265 -0.011424848 -9.910017e-05
0000b0 a8 53 55 bb 9e 16 bb bc ce 20 5c 3c 56 72 78 3c
       -0.0032551084 -0.022837933 0.013435556 0.015163979
0000c0 f9 c1 d4 bc 49 df 98 3c e4 c0 d7 bc 94 c3 ae bc
       -0.0259714 0.018661158 -0.026337095 -0.021333493
0000d0 6c 3f 57 bc 50 82 4e bb 90 ff c7 3a 6a 3b 38 3c
       -0.01313768 -0.0031510778 0.0015258659 0.011244634
0000e0 28 3a 0e bc f9 eb ce 3c 02 fd 5d 3c 3a fd 47 3c
       -0.008680858 0.025259005 0.013549091 0.01220637
0000f0 00 fd 18 ba a0 81 ac ba 5b e4 97 3c ac 3c 6a bc
       -0.000583604 -0.001316119 0.018541506 -0.014296692
000100 4e a9 6b 3c 24 6a 4d bc c2 13 00 3c 43 77 83 bc
       0.014383627 -0.012537513 0.007817211 -0.01604808
000110 5f 15 aa 3c 52 05 0b bc 57 53 a9 bc 18 e6 79 bc
       0.020762144 -0.008485155 -0.020669622 -0.0152526125
000120 0c 87 f2 bb 94 62 ce bc 03 99 98 bc be fb 04 bc
       -0.0074013527 -0.02519349 -0.01862765 -0.008116661
000130 12 d7 1d 3c 6f 4e b8 3c 16 f1 1b bc 4e 70 0b 3c
       0.009633796 0.022498338 -0.009517929 0.008510662
000140 51 69 d2 3c 17 6f 5d bc 2e 22 2b 3c ae c4 5d 3c
       0.025684984 -0.013515255 0.010445161 0.013535662
000150 c4 12 a6 bc 89 a4 66 bc 7e e2 94 bc d0 67 b4 bb
       -0.02027262 -0.014077314 -0.018174406 -0.0055055395
000160 4c 8d 75 bc dd c6 bf 3c 70 c8 c2 bb 09 9e b7 bc
       -0.014987301 0.023410255 -0.005944304 -0.022414224
000170 ad d1 c7 3c 96 29 8a bc 68 8e ce bb 13 8e c2 3c
       0.024391973 -0.016865533 -0.0063035972 0.023749387
000180 04 e6 93 bc a6 92 79 3c a6 6f 21 3c e6 b6 26 3c
       -0.018054016 0.015232718 0.009853279 0.010175442
000190 58 0b 03 bb bc 07 d5 bc e6 16 0f 3c 36 a8 1f 3c
       -0.0019995775 -0.026004665 0.008733487 0.009744694
0001a0 f2 39 81 bc e3 e6 b7 3c 98 78 89 bc 15 b4 98 3c
       -0.0157747 0.022448963 -0.016781136 0.018640557
0001b0 24 3b e9 3b 4f 61 ca 3c 70 88 fe ba cf d6 b0 3c
       0.007117646 0.024704603 -0.0019419324 0.021586804
0001c0 d4 23 a6 bb 72 cf aa bc 52 29 2d 3c 0d 0d 88 3c
       -0.005070189 -0.02085087 0.010568934 0.016607786
0001d0 d8 30 66 bc 95 0e b7 3c 80 26 69 3b d2 ab 22 bc
       -0.014049731 0.02234582 0.0035575926 -0.0099286605
0001e0 b4 91 c8 bb 8b a5 d7 bc 32 c2 4f bc ba d3 30 3c
       -0.006120885 -0.026324054 -0.012680577 0.010792667
0001f0 98 5c 25 bb 97 6c d0 3c 91 fd bf 3c 20 31 92 bc
       -0.0025232192 0.025442405 0.02343634 -0.01784569
000200 b0 b8 17 3b 90 b8 a3 3a c9 98 a7 bc 44 21 1e bc
       0.0023150854 0.0012490917 -0.020458596 -0.009651486
000210 04 bd db bb 56 ba 09 3c 2c 2d a3 3b 84 d1 ef bb
       -0.006705882 0.008406242 0.00497975 -0.0073186774
000220 f4 f5 a7 3b d4 2b 86 bc 54 b0 ca bc b2 2d 40 3c
       0.0051257554 -0.01637832 -0.024742283 0.011729645
000230 07 46 b1 bc fd 3f d8 3c e1 3c bb 3c d0 c1 92 ba
       -0.021639837 0.0263977 0.022856178 -0.0011196677
000240 50 77 3d bb c0 c2 18 3a b8 f4 5e 3b 74 47 90 bc
       -0.0028910227 0.000582736 0.0034020375 -0.017612197
000250 3c d9 ef 3b ba f6 be bc fd c3 97 3c b5 84 bd 3c
       0.0073195975 -0.023311008 0.018526072 0.023134569
000260 3a 69 d9 bc c3 2c a9 3c c8 ec 69 bc 80 3a 11 3b
       -0.026539434 0.020651227 -0.014277644 0.0022160113
000270 2e 44 1d 3c 9d a7 a5 bc 4c e9 83 3b ac 50 a6 3b
       0.009598775 -0.020221526 0.004025614 0.005075535
000280 5c b8 f5 3b bb ba bf bc 65 3f da bc 82 ae 6a 3c
       0.007498784 -0.02340447 -0.026641557 0.0143238325
000290 ba f7 70 3c e8 0a 04 3b 18 e0 79 3b 18 c4 93 3b
       0.0147075 0.0020148102 0.0038127955 0.00450946
0002a0 0e b3 4f 3c 9a 34 68 bc e8 ec 5b 3b c2 c0 5d 3c
       0.012676967 -0.014172697 0.0033557955 0.013534727
0002b0 78 99 d3 bc
       -0.025830016

weights.1.weight f4 [21, 173]
000000 54 73 84 bc cb 83 85 bd a4 9d 7f bd 30 61 3c 3c
       -0.016168274 -0.06519278 -0.062406197 0.011497781
000010 6a e0 5d 3d b8 c5 e6 3c f2 a0 90 bd e2 e9 55 3d
       0.054169096 0.028170452 -0.07061948 0.052225
000020 46 3f 7b 3d d5 73 9b bd ed 94 85 3d 22 a6 34 3d
       0.06133964 -0.075904526 0.06522546 0.04410375
000030 28 26 7b 3c 85 08 96 bd 60 d2 11 3b 00 e6 6b bb
       0.015328921 -0.07325844 0.0022250637 -0.0035995245
000040 62 a0 4e 3d c8 2d ef bc 1d 17 11 bd 20 f4 6b bd
       0.05044592 -0.029196635 -0.035422433 -0.057605863
000050 d4 44 25 bd 06 8c 45 bd f4 d5 5f bd e0 d6 a7 bb
       -0.040348843 -0.04822924 -0.0546474 -0.0051220506
000060 c8 f5 f0 bc 0a 60 8a bc 97 6c 00 bd 70 b4 e0 bb
       -0.029414073 -0.016891498 -0.03135356 -0.0068574473
000070 fa aa 50 3d 00 7e a9 39 da dd 9a bd 6d 6c 9b 3d
       0.050944306 0.0003232807 -0.07561846 0.0758904
000080 70 89 20 3c 10 8d 5b 3c e0 76 f1 bc 6e ac 9c bc
       0.009798393 0.013400331 -0.02947563 -0.01912519
000090 00 6b 87 bb 24 7b 5e bc 48 f4 7b bd 16 16 1a bd
       -0.0041326284 -0.013579164 -0.06151226 -0.03761872
0000a0 71 0b 9b 3d 24 92 f3 3c 76 72 1e 3d 38 db 4c 3c
       0.07570542 0.029732771 0.038683377 0.012503438
0000b0 bc 2f 89 bd 26 df 2d bd a8 62 c0 bc 4b 6a 8f bd
       -0.06698558 -0.04244914 -0.023484543 -0.07002696
0000c0 79 1d 96 3d 36 e3 2b bd a0 b0 ef 3c e9 e0 96 bd
       0.0732984 -0.041964732 0.029259026 -0.07367117
0000d0 05 1b 73 bd cc b2 4a bd 60 f2 7c 3b 9c 74 7b bd
       -0.05935194 -0.04948692 0.0038596615 -0.061390504
0000e0 b4 7d bd bc 79 25 1a bd 8c 00 e0 3c e8 de b8 3c
       -0.023131229 -0.037633393 0.02734401 0.022567227
0000f0 0f 8f 92 3d ef 56 86 3d 52 e3 2c 3d 5a 57 4f bd
       0.071561925 0.0655955 0.042208977 -0.050620414
000100 d6 43 45 bd 38 9a 12 bc d8 58 47 3d 66 cd 71 3d
       -0.048160397 -0.008947901 0.048668712 0.059033774
000110 3a aa 8a bd f0 f1 75 3c a0 63 4e 3b 7c 07 14 bd
       -0.067707494 0.015011296 0.0031492487 -0.03613995
000120 70 7a 0f bc e0 31 f8 3b 44 ab 66 bd 52 4b 6d bd
       -0.008757219 0.007574305 -0.056315675 -0.05793316
000130 c4 22 aa 3c a4 96 1f bd 3e 16 83 bc e8 50 47 3d
       0.02076853 -0.03896202 -0.016001817 0.048661143
000140 ad 24 59 bd 0e 9c a3 bc 68 8b 54 bc fe e7 7b 3d
       -0.053013492 -0.019971874 -0.01297269 0.061500542
000150 03 05 88 3d 58 e2 51 3c ae c6 cb bc 74 64 26 bd
       0.06641581 0.012810312 -0.024875011 -0.040623143
000160 20 a8 89 3c 82 b9 d1 bc e4 b3 af 3c 00 65 c5 bb
       0.016803801 -0.025601152 0.021448083 -0.006024003
000170 5a 7e 25 3d 80 69 14 3b d5 bc 0a bd f0 c0 cf bb
       0.0404037 0.002264589 -0.03387149 -0.0063401386
000180 50 4b bf bc 30 35 4e 3c 90 35 d5 bb fa 17 65 3d
       -0.023351341 0.012585923 -0.0065066293 0.05593107
000190 dc 63 24 bd db bc 5e bd 95 df 40 bd 68 f1 17 bc
       -0.040134296 -0.054379325 -0.047088224 -0.009273864
0001a0 8c 7d 2d bd e8 ac d8 bc e0 8a 80 3b 50 77 9e 3b
       -0.04235606 -0.026449636 0.003922805 0.0048360005
0001b0 28 7d cb bc 8a c5 23 3d 0e 9b 5f 3d 9c ef da 3c
       -0.024839953 0.03998331 0.05459123 0.026725583
0001c0 ea c8 53 bd 3b dc 20 bd 32 40 61 3d 6c be 3d 3d
       -0.05170528 -0.03927253 0.054992862 0.04632418
0001d0 96 89 19 3d 8a 3c 43 3d 9b e7 25 bd f2 97 cc bc
       0.037484728 0.047665156 -0.04050408 -0.024974797
0001e0 a8 38 c3 bc 28 b3 36 bd 12 d2 cc bc 6c fa 37 bd
       -0.023830727 -0.04460445 -0.025002513 -0.044916555
0001f0 50 b2 c1 3b 6f fc 86 3d 9d 0a 89 3d f0 b2 5d 3c
       0.005911149 0.06591117 0.066914774 0.013531432
000200 30 93 1b bc cc a2 bf 3c 18 71 5d 3c cc 7b 98 3c
       -0.009495541 0.023393057 0.013515733 0.018613718
000210 04 31 e0 bc c0 03 37 3b b5 35 04 bd a8 89 39 3c
       -0.027367122 0.002792582 -0.03227778 0.011324324
000220 e8 8b 21 3d 32 01 66 3d 30 a8 ef 3b 76 aa 03 3d
       0.039440066 0.056153484 0.0073137507 0.032144986
000230 b0 99 ca bb a0 eb 46 3d d2 9d 36 bd 21 55 89 3d
       -0.0061828718 0.048564553 -0.044584103 0.0670569
000240 ec a1 e0 3c 10 a8 ee 3c d8 63 1e bc f0 77 89 3b
       0.02742096 0.029132873 -0.009667359 0.004195206
000250 e5 e0 8f 3d 10 25 df bb 4f 0c 03 bd 5e 84 62 3d
       0.07025317 -0.006809838 -0.03199416 0.055302016
000260 c2 ec a8 bc d4 94 05 3d 78 61 1d 3d e1 1e 95 3d
       -0.020620707 0.032612637 0.03842303 0.0728128
000270 ca c9 34 bd 91 c6 01 bd 45 3f 14 bd bf 23 8e bd
       -0.044137754 -0.03168351 -0.03619315 -0.06940412
000280 00 c4 3b b9 2e 3a 62 bd 6f 54 87 3d fb fc 95 3d
       -0.00017906725 -0.055231266 0.06607901 0.07323643
000290 51 68 9a bd 30 dd d2 3b 2e 08 41 3d b4 e3 a6 3c
       -0.07539428 0.006435059 0.04712694 0.02037225
0002a0 00 43 a7 bc b5 6d 12 bd fa 4a 44 bd 40 1d 82 bc
       -0.02041769 -0.035749156 -0.047923066 -0.015883088
0002b0 d0 59 4f bd 20 c1 57 bc 64 23 88 bc 84 69 b2 3c
       -0.05062276 -0.013168603 -0.016618438 0.02177883
0002c0 17 21 94 bd 3e 5b da bc c8 8a 0c bc 9c 82 df 3c
       -0.07232874 -0.026654836 -0.00857801 0.02728396
0002d0 3c 78 71 bd e1 61 8f 3d d0 bb 68 bc 28 15 79 3c
       -0.058952555 0.07001091 -0.014204934 0.015202798
0002e0 d7 24 31 bd fa 6b 80 bd e8 7b f3 bc c0 f7 1f bb
       -0.043248024 -0.06270595 -0.029722169 -0.0024409145
0002f0 2b 7f 6b bd f0 a3 7b bd 58 2a 70 bc 99 b5 6e bd
       -0.057494324 -0.06143564 -0.014658533 -0.058278654
000300 22 4b 09 3d bb 82 99 3d 80 41 2d bc 19 6f 8d 3d
       0.033518918 0.07495638 -0.010574698 0.06905956
000310 ac 39 c7 3c 24 a0 f4 3c 17 30 7f bd 1b 99 86 3d
       0.024319492 0.029861517 -0.06230172 0.06572171
000320 9e 4e 8a bd b2 a3 65 bd 5c 17 8f 3c ff 10 7b bd
       -0.06753276 -0.056064315 0.017467193 -0.061295506
000330 18 62 8f 3c 20 89 7d 3c ca 90 fc bc c0 ad 78 3b
       0.01750283 0.015474588 -0.03083076 0.003794536
000340 18 11 d4 bc 72 19 d8 bc 75 51 83 3d 58 64 54 bc
       -0.025887057 -0.02637932 0.06412021 -0.012963377
000350 e8 5a ea bc d4 44 cf 3c 77 a0 02 bd 18 5b e2 bc
       -0.0286078 0.025301374 -0.031891312 -0.027631328
000360 36 35 6c 3d b0 33 e0 bb 10 df 5a bc cc 55 ce bc
       0.057667933 -0.006842099 -0.013358846 -0.025187396
000370 48 b4 23 bd 20 08 33 bc 0a 4f 4c 3d 84 d2 a1 bc
       -0.03996685 -0.01092723 0.049880065 -0.019753702
000380 d1 9f 72 bd fc 9c b0 3c 86 6f 9b bc 7d 2c 73 bd
       -0.059234444 0.021559231 -0.018974077 -0.0593686
000390 42 5d 23 3d b0 30 ba bb 62 30 09 3d e8 04 1c 3d
       0.03988386 -0.0056820735 0.033493407 0.038090616
0003a0 60 93 15 3d 20 b3 c1 3c 5a e4 4a bd 52 6e f3 bc
       0.0365175 0.023644984 -0.04953418 -0.02971569
0003b0 c8 34 54 3c 91 76 98 bd 83 8d 93 3d bf 64 1e bd
       0.012952037 -0.0744449 0.072047256 -0.038670298
0003c0 b0 4f 01 bd b2 3d d6 bc 46 eb 8d bd fe f4 16 3d
       -0.031570137 -0.026152465 -0.069296405 0.036854737
0003d0 f4 31 3b 3d c2 dd 45 bd 78 a3 11 3d 00 b5 eb 3b
       0.045701936 -0.048307188 0.035556287 0.0071932077
0003e0 c4 8e 26 bd 58 86 0e 3d fb d9 90 bd 04 77 f1 3c
       -0.040663496 0.03479609 -0.070728265 0.029475696
0003f0 6c 6b 3e bd c0 b4 35 bb 28 93 9d 3c c5 ea 6a bd
       -0.046489164 -0.0027726144 0.019235209 -0.0573528

weights.1.bias f4 [21]
000000 a1 1f 86 3d 5c b0 f7 bc e2 e7 2e 3d 62 20 46 3d
       0.065490015 -0.030235462 0.04270161 0.048370726
000010 00 96 6a b9 e6 3a 56 3d 58 03 06 3d 1a b5 40 3d
       -0.00022371858 0.052302264 0.032718033 0.047047712
000020 38 db 41 3d 1a d2 7b 3d e4 e3 df 3c 80 3a fb 3c
       0.047328204 0.061479665 0.027330346 0.030667543
000030 d8 d0 cb 3c f4 58 21 3d 40 81 1e bd 10 2c bd 3b
       0.024879858 0.039391473 -0.03869748 0.005773075
000040 54 10 b2 3c ae 60 1f 3d 54 2a e3 bc 00 0c ef b9
       0.021736301 0.03891056 -0.027730145 -0.00045594573
000050 46 0b 57 3d
       0.052500986

weights.2.weight f4 [2, 21]
000000 6b 4b 0d 3e 33 d8 33 be fb 0c 0a 3e c8 cc fd bc
       0.13798301 -0.17562942 0.13481514 -0.030981436
000010 98 e9 55 bd 0e 18 fa bd df e4 4b 3e 14 c7 13 3d
       -0.052224725 -0.12211619 0.19911526 0.036078528
000020 6e 2b 8c 3d fc 77 ba bd c0 ad ea bb ed 6e 5c 3e
       0.06844221 -0.091049165 -0.007161826 0.2152669
000030 df a9 e6 bd 60 be 35 be 65 1f c9 bd 58 d7 d5 3c
       -0.11262869 -0.17748404 -0.09820441 0.02610366
000040 fe 91 ad 3d df 2c 48 3e 4e c3 58 be 89 98 07 3e
       0.084751114 0.19548367 -0.21168253 0.13241781
000050 c2 0a 4d be 9a c9 f0 3d d2 87 a1 3d 4b 58 26 3e
       -0.20023635 0.117572024 0.07887234 0.16244619
000060 f7 d8 16 3e d0 a6 26 3c f9 f1 1e 3e 83 9d 5e be
       0.14731203 0.010171607 0.15521993 -0.21739773
000070 b6 b1 cf 3d a3 7f 38 3e 9b 92 53 3e d9 b2 29 3e
       0.101413175 0.1801744 0.20661394 0.16572131
000080 75 dd 12 be 02 5a 8f 3d a3 a4 4c 3e 5c 48 51 bd
       -0.14342292 0.069995895 0.19984679 -0.051094398
000090 b6 56 c3 3d 29 97 3a be d6 97 e0 3d f9 e3 13 be
       0.09538023 -0.18221726 0.109664604 -0.14442433
0000a0 40 82 71 3b 73 ec 57 be
       0.0036851317 -0.21086292

weights.2.bias f4 [2]
000000 8a cd f8 3d 74 f6 7d 3d
       0.121485785 0.062002614

weights.3.weight f4 [1, 2]
000000 5a ad 1b bf fc 08 bd be
       -0.6081139 -0.36920917
