Final_Project/Bayes_op_model_DDBL.pt (torch, 984191 bytes, 7 tensors)

weights.0.weight f4 [172, 1404]
000000 f6 83 03 3c 7f ef 03 3d de 02 bd 3b 86 b2 a7 3c
       0.008027067 0.032210823 0.005768164 0.020470869
000010 ea 42 f9 3c 8c 73 9e bc 1b d5 51 bc 6d 49 56 3c
       0.030427415 -0.019342206 -0.012807156 0.0130790295
000020 39 c3 e8 3c f6 41 82 bc e5 4f 92 3c b7 a4 a8 bb
       0.028413402 -0.015900593 0.017860362 -0.0051465887
000030 e4 fc ab bc 8d 91 e5 ba e1 ea 49 bc 1d a9 32 bc
       -0.020994611 -0.0017514691 -0.012324066 -0.010904578
000040 3b 0d 04 3c b4 d7 93 3c ac 49 f8 bb 4b 9d f4 3c
       0.008059795 0.018047191 -0.0075771417 0.02986016
000050 b4 bc 8a 3c 95 92 a9 bc e2 8c e9 3c 48 87 60 bc
       0.016935684 -0.020699779 0.028509561 -0.013704129
000060 d3 e4 19 bc 0c bd 78 bc 43 cb e8 3b 6c 18 80 bc
       -0.009392935 -0.015181791 0.007104309 -0.015636645
000070 e7 b0 16 3c 19 57 cd bc fe 17 e0 bb 00 cd ab bc
       0.00919745 -0.025065945 -0.0068387976 -0.020971775
000080 8f 38 aa 3c 28 b4 66 3c 27 db 4f 3c e2 61 0f bb
       0.020778922 0.014081039 0.012686527 -0.002187841
000090 53 32 9f bb c8 1b 81 bc 91 72 a9 3a 00 a2 24 3b
       -0.004858294 -0.015760317 0.001292782 0.0025120974
0000a0 32 47 07 3c 5c be 11 3c 87 1f 8a bc a4 88 4c 3c
       0.00825672 0.008895483 -0.016860737 0.01248375
0000b0 2b 36 b4 bc 16 11 8d bc 88 25 6a 3c e4 b3 15 3c
       -0.021998486 -0.017220061 0.014291175 0.009137128
0000c0 bb da 84 bc de ae c7 bc d9 8c 8a bb 0e a4 37 3c
       -0.01621758 -0.024375375 -0.004228216 0.011208547
0000d0 ee ac 07 3d 9a 2b a1 3b 7d 70 be 39 14 30 e9 3c
       0.033123903 0.004918528 0.00036323434 0.028465308
0000e0 27 db 59 3a 49 51 9c 3b 6d 30 1b bc cb 41 2d 3b
       0.00083105493 0.004770432 -0.009471995 0.002643692
0000f0 7a bd f6 3b d0 ae df 3c 02 aa 7f 3c 1f ed 05 bc
       0.0075299116 0.027305037 0.015604498 -0.00817421
000100 72 e8 1d bc bb f5 cc 3c 30 3e ea bb 6a ca 96 3c
       -0.009637939 0.025019517 -0.0071485266 0.018407065
000110 b0 67 b6 3c 84 6f 9b 3b 9d b1 e0 3c a2 d4 e7 3c
       0.022266239 0.0047435183 0.027428443 0.028299633
000120 aa d0 a6 3c 34 91 48 bc 5f fd 40 bc fa 21 30 3c
       0.02036317 -0.01224165 -0.011779158 0.010750288
000130 67 c4 be 3c 50 11 cb bc 65 e1 ec 3a d3 fe 68 3a
       0.023287011 -0.024788529 0.0018072544 0.00088880694
000140 68 92 44 3c c6 d8 5c 3c 22 c9 d7 b8 4e d4 b7 bc
       0.011997797 0.013479417 -0.00010289463 -0.022440102
000150 1e 8a 34 3c 05 c9 73 3c e7 f3 8b bb 4c d2 04 bc
       0.011019258 0.01487947 -0.004271019 -0.008106779
000160 17 35 b2 3c 8b bd fe 3b d6 0f bf bc a8 76 14 bc
       0.02175383 0.00777406 -0.02332298 -0.009061493
000170 c7 3d db ba bd db 8c 3c ca f8 18 3c 16 92 db 3c
       -0.0016726785 0.017194623 0.00933666 0.026803058
000180 e8 ee 75 bb 1b ee a4 3c 35 4a ec 3c fd 35 33 3c
       -0.0037526432 0.020133069 0.028843978 0.010938165
000190 53 35 e5 3c 14 3e 87 bc d4 38 e4 bb 63 75 a2 3c
       0.027979529 -0.016509093 -0.0069647823 0.019831365
0001a0 2f 7b cd bb 48 28 a4 3c 21 62 bc 3c d5 37 aa 3c
       -0.006270788 0.020038739 0.02299601 0.020778576
0001b0 2b b4 96 3c 05 fb e6 3c b9 f3 9a 3b a2 0d 8e 3c
       0.018396458 0.028195867 0.004728761 0.017340485
0001c0 44 cc 85 bb 59 5a 84 ba 44 b4 c1 3b df d1 10 3c
       -0.0040831883 -0.0010097726 0.005911382 0.0088391
0001d0 fa ab 95 3c 1e d5 e1 bc 60 f6 b5 3b d1 ab c0 3c
       0.018270481 -0.027567443 0.005553052 0.023519428
0001e0 bf 97 4d 3c 44 11 4a 3c 5a 6b b1 bc 25 b4 86 3b
       0.012548386 0.012333218 -0.021657635 0.0041108304
0001f0 d8 a6 5d bc 01 15 25 bc 53 b3 9a bc 22 d9 e8 3c
       -0.013528548 -0.0100758085 -0.018884337 0.02842385
000200 de a1 a1 3c 2d 74 88 bc d0 ec cf 3c de 5b ca 3c
       0.019730505 -0.01665696 0.025381476 0.024702009
000210 fb 03 a7 3c 30 0e ae 3c fb 67 d6 3b 40 1f 8b bc
       0.02038764 0.021247 0.006543157 -0.016982675
000220 c3 ec 59 3c 83 d1 07 bc 3f c1 f7 bc a9 d6 a2 3c
       0.013301077 -0.008289698 -0.030243514 0.019877749
000230 1e 2f c4 3c 4b 3b 4b bc 14 f9 43 3a 6f 89 bd bc
       0.023948248 -0.012404273 0.0007475775 -0.023136823
000240 55 9c 8c bc ca 12 6e 39 69 1f 12 3c cb 0f c6 bc
       -0.017164389 0.00022704448 0.008918622 -0.024177453
000250 45 51 8d 3c fb db 74 bc 93 7a 18 3c a1 96 78 bc
       0.017250666 -0.014945026 0.009306568 -0.0151726315
000260 c6 6a 10 3c 4f cc 3a 3c 71 67 cf 3b 96 9e a0 bc
       0.008814519 0.01140125 0.00632947 -0.01960687
000270 f0 6b 42 bc d8 1c 9a 3c a9 83 a5 3c ef f8 6d bc
       -0.011866555 0.018812582 0.020204382 -0.014524682
000280 55 60 b9 3c eb 0f a7 3c 12 36 94 bc 47 b5 90 3c
       0.022628943 0.020393332 -0.018092189 0.017664565
000290 ab cf 55 3c fa 4a d9 bb d9 f9 4d bc 69 22 2b 3b
       0.01305 -0.0066312524 -0.012571775 0.002611304
0002a0 b3 20 b6 3b d7 ff 8b bb 76 f8 16 3a 1b e9 06 3c
       0.0055580973 -0.004272442 0.00057590695 0.008234288
0002b0 cc 48 25 3a 23 78 97 bc bd f3 3c bc 6a a0 c9 3c
       0.0006305098 -0.018489903 -0.011532721 0.024612624
0002c0 ef b6 4e 3b 34 3a 7c 3b 7f 97 49 3c 9a e6 d7 bc
       0.0031542142 0.003848684 0.012304186 -0.026355077
0002d0 83 6c b1 bb dd e6 20 3a 44 a7 91 bb 07 9d ea bb
       -0.005414547 0.0006137917 -0.0044449884 -0.0071598324
0002e0 ad dc c7 3c eb b7 58 3c ed 63 e9 bc 0a dd 4d 39
       0.024397219 0.013227443 -0.028490031 0.00019632667
0002f0 4b 18 06 bc 1d ab 77 bc c7 22 97 3c 2b c3 96 bc
       -0.008184503 -0.01511648 0.0184492 -0.01840361
000300 8d f5 59 3a 72 ab 99 bb ee 5d 30 bc 54 ab 46 3b
       0.0008314483 -0.0046896273 -0.010764582 0.0030314522
000310 5c 86 6b 3c b4 01 9c 3c f1 53 9b bc 57 bf be 3c
       0.0143752955 0.01904378 -0.018960925 0.023284597
000320 40 9c f1 3b 67 e6 a7 bc 36 4c 96 bc 71 95 aa 3c
       0.007373363 -0.020495607 -0.018346887 0.020823212
000330 02 3d ff 3b 8f 2b 21 3c 9b fa 86 bc e3 9f 22 3a
       0.007789255 0.009837045 -0.01647692 0.00062036345
000340 66 7d c7 3b 42 9f 15 3d 22 74 a6 39 ca 0d 5f 3c
       0.0060879467 0.036528833 0.00031748513 0.013614127
000350 db f7 97 3b b5 37 53 bc 69 dc af 3c cc d6 f1 3b
       0.004637701 -0.0128917 0.021467404 0.007380342
000360 d4 67 52 bc 52 91 9b 3c a6 77 8f bc db a3 65 3a
       -0.012842137 0.018990193 -0.017513108 0.0008760073
000370 04 00 f6 3b b0 68 6d 3b 0e 94 9f bb da 62 02 3d
       0.007507326 0.0036225729 -0.0048699444 0.031832553
000380 9f f6 a6 3c b8 60 f6 bc 22 42 94 bc fc 8f a3 3c
       0.02038127 -0.030075416 -0.01809794 0.019966118
000390 b6 1b c5 3b ca 8e 07 bc 17 cb d2 3a 97 06 6c 3a
       0.0060152663 -0.00827379 0.0016082254 0.00090036675
0003a0 20 0c 42 3c c7 af bf bb 9e cf b9 bc c2 72 eb 3b
       0.011843711 -0.0058498117 -0.022682007 0.007185311
0003b0 af be 51 3b be 76 16 bb f2 fb db bb 5d df ed 3c
       0.0032004525 -0.002295896 -0.006713384 0.029037172
0003c0 84 55 1b 3c de 6d a3 3c d5 a3 da 3c 38 35 50 bc
       0.009480838 0.01994985 0.02668945 -0.012708001
0003d0 57 fd 34 3c 50 20 8a 3c a1 4b 86 bc 31 a6 a2 bb
       0.011046729 0.01686111 -0.016393485 -0.004963659
0003e0 58 9f a5 3c d1 98 72 3b 6f 92 74 3c 49 1a 4e 3c
       0.020217583 0.0037017355 0.014927491 0.012579509
0003f0 19 a4 4b bc 6b af f5 3c ae a5 8f 3c 5f 99 0f bc
       -0.012429261 0.029990872 0.017535057 -0.008764594

weights.0.bias f4 [172]
000000 f3 dc a4 3b 26 9b 1b 3c 9d 4e 77 3b 0b 3d 6e 3c
       0.005031222 0.0094974395 0.0037736066 0.014540921
000010 96 93 06 3c a2 63 5c 3c 54 13 9a bc 77 29 d5 3b
       0.008213898 0.013451489 -0.018808044 0.006505187
000020 01 a8 30 bc f5 43 88 bc ce f2 4b 3c f8 cf 09 bc
       -0.010782243 -0.016633967 0.012448026 -0.0084114
000030 0a 5e ff 39 76 31 3c bc 6f c5 41 3b 96 de 55 bb
       0.00048707455 -0.011486402 0.0029567142 -0.0032633892
000040 12 66 9f 3c 46 95 eb 3c b6 cd c6 bc b8 4b 84 3c
       0.01945785 0.028757703 -0.024268012 0.016149387
000050 84 67 de bb a1 67 25 3c d5 45 bf 3c 8d b9 21 bc
       -0.0067872424 0.010095508 0.023348728 -0.009870899
000060 69 ea 58 3c 65 64 a1 bc 36 24 da bb 49 51 08 3d
       0.0132394815 -0.019701192 -0.0066571487 0.033280645
000070 49 ff 92 3c da ac a6 bb 02 74 0f 3b 15 e6 94 bb
       0.017943995 -0.0050865235 0.0021889214 -0.0045440295
000080 04 2a 6b 3b 6b e3 de b8 75 51 b5 ba a7 53 9c 3c
       0.0035883198 -0.00010628145 -0.001383348 0.019082857
000090 8a 5c 9c bb ea 5a a3 3b 94 14 9f bc ca 01 0c ba
       -0.0047717737 0.004985203 -0.019418992 -0.0005340843
0000a0 92 4b 2e 3c f9 ad 59 bb 1a 71 c0 3c 22 6f e5 b9
       0.010638135 -0.0033215268 0.023491431 -0.00043761084
0000b0 8e b4 d0 3b 35 c5 d2 3b cc 37 07 3c 22 84 f2 ba
       0.00636918 0.0064322003 0.008253049 -0.0018502513
0000c0 28 da 14 bc ae 21 d5 3c db 19 b1 bc f9 24 5f 3c
       -0.009085216 0.026017036 -0.021618774 0.013619655
0000d0 6c db ec 3b 17 be 6f bc 7a 7c 2b bc df e3 70 bc
       0.0072283056 -0.014632723 -0.010466689 -0.014702766
0000e0 7c 4a b0 3c a8 d2 d7 bc 8f bd 9f 3c 7e dd ed 3c
       0.021519892 -0.026345566 0.019499568 0.02903628
0000f0 73 57 82 3c 38 c0 0d 3c 77 0c a9 3a f0 91 17 bb
       0.01591084 0.008651786 0.0012897392 -0.0023127757
000100 26 d2 8d 3c 35 6d 6a 3c cd 50 34 3b ff 7d ad 3c
       0.01731212 0.014308264 0.0027513981 0.021178244
000110 5b eb c5 3c 78 a9 fe 3c e9 fd 6a bc 8c 29 96 3c
       0.024160078 0.031086668 -0.014342763 0.018330358
000120 3e 7f 0e bb 2b f5 8a 3c 52 dd 41 3c 96 b5 31 bc
       -0.0021743323 0.016962608 0.011832552 -0.010846516
000130 94 1b e9 3c 1c 85 77 bb 0b fb ae ba b4 f0 d8 bc
       0.028455533 -0.0037768548 -0.0013349963 -0.026481964
000140 6a d4 b8 3c 87 7d 8e bc 19 ca b2 bc 4a 33 a4 3b
       0.022562224 -0.01739384 -0.021824883 0.005010997
000150 73 da a6 bb d3 35 24 bc da da 06 3b f9 6e c1 3c
       -0.005091959 -0.010022598 0.0020577223 0.023612486
000160 cd d9 42 3c 3c 5a 84 bc a4 66 02 bc 9b 50 91 bc
       0.011892748 -0.016156308 -0.007959042 -0.017738631
000170 4e ea dd bc 20 32 83 ba 8e f0 8f 3c a1 36 32 3c
       -0.027089264 -0.0010009445 0.01757076 0.010877282
000180 dd aa d9 3b 8b d2 fd 3b 0a 4f 94 3b b9 27 76 ba
       0.006642683 0.007746046 0.0045260238 -0.00093900744
000190 b9 ad 5a bc ef 40 a5 bc 6b 71 87 bb 0d 62 3e bc
       -0.013347083 -0.020172564 -0.0041333935 -0.011620057
0001a0 ea 9e 90 bc 61 0c 97 3c 6f 71 1c bb 2f d6 14 3c
       -0.017653901 0.01843852 -0.0023871323 0.0090842685
0001b0 e9 8f 91 3c 84 8f 98 3b 87 70 9a bc e5 e5 bb bc
       0.017768817 0.0046557803 -0.018852485 -0.02293677
0001c0 45 77 db ba 4b f4 9b bc d0 d9 a8 3c 6e fb aa 3c
       -0.0016743919 -0.019037386 0.020611674 0.020871844
0001d0 cc 09 0e bc 0d 50 e3 3c 50 8b 40 ba f1 c2 aa 3b
       -0.008669328 0.027748132 -0.0007344978 0.005211227
0001e0 00 9c 3a ba 26 a9 82 bb a2 0c 33 bc 06 4e b0 bc
       -0.0007118583 -0.003987449 -0.010928305 -0.02152158
0001f0 7e 80 a0 bc f0 d9 c8 bc 86 5d 62 bc e3 e3 08 3d
       -0.01959252 -0.024517983 -0.013816243 0.033420455
000200 d6 70 50 3b fc 5a a1 bc e7 47 7e bc a4 3b bd 3a
       0.0031805537 -0.019696705 -0.015520073 0.001443733
000210 71 3d 8b 3b fc 71 1f bc a5 24 0d bc 96 80 e9 bc
       0.0042492677 -0.009731766 -0.008614694 -0.028503697
000220 d9 3e 8f 3c 15 1f ef 3b 84 60 29 bc f9 3d e6 39
       0.017486023 0.0072974064 -0.0103379525 0.00043915192
000230 5a 43 03 bd 6c cf c0 bc 3d 2a a5 bc 63 96 50 bc
       -0.032046653 -0.023536406 -0.020161742 -0.0127311675
000240 d3 e1 82 3c 68 82 41 3c 5f 32 db bc 69 66 aa 3c
       0.015976822 0.011810876 -0.026757417 0.020800786
000250 cc 63 51 3c d0 ab 84 3c 40 db 09 bc 4b 01 4f 3b
       0.012780141 0.016195208 -0.00841409 0.0031586464
000260 87 9a c9 3c 02 96 12 bd 9f 7d e2 3c 00 bf aa 3c
       0.024609817 -0.03578759 0.027647791 0.020843029
000270 81 0e 06 bc 41 e2 40 3c e9 60 83 3c 82 24 75 bc
       -0.008182169 0.011772693 0.016037421 -0.014962317
000280 7d f9 ba 3c 4f 79 e2 3c d1 1b fa 3c 16 e7 4e bb
       0.022824043 0.027645735 0.030530842 -0.0031570843
000290 16 11 c6 3b ba 1b 98 ba 20 3e 9f bc 07 12 86 3c
       0.0060445173 -0.0011604943 -0.019438803 0.016366018
0002a0 c0 48 dc bc 35 8a 9c 3a fd fb b4 bc ff ac 3d bc
       -0.026890159 0.0011943044 -0.022092814 -0.01157689

weights.1.weight f4 [21, 172]
000000 ee f5 72 3d 50 f8 2e 38 97 30 97 bd 94 68 66 3d
       0.059316568 4.171609e-05 -0.07382315 0.056252077
000010 f4 12 2b bc 54 e7 20 bd 08 ab f8 3c a6 67 d8 bc
       -0.0104415305 -0.03928311 0.030354992 -0.02641661
000020 58 55 a3 3c 0a 02 3c 3d 62 6b 99 bb 14 a2 9b bd
       0.019938156 0.045900382 -0.0046819905 -0.07599273
000030 1c ff 5c bd 08 72 d4 3c 61 25 a5 bd 27 8b 6c 3d
       -0.05395423 0.02593328 -0.0806377 0.057749894
000040 d1 58 8e bd d2 ee 07 3d 04 36 9e 3b 35 7c ab 3d
       -0.06950534 0.03318674 0.0048282165 0.083733
000050 17 91 9e bd 56 91 51 bd 9f 8f 20 bd f1 0b 23 3d
       -0.077425174 -0.051163994 -0.039199468 0.03980631
000060 58 ec 3c 3d 62 b1 68 bd fe b7 82 bc 8e b8 05 bd
       0.046123832 -0.05680979 -0.015956875 -0.03264671
000070 44 db 22 bd dd 66 8f 3d ec 09 8b 3d 2c 1b 9f bd
       -0.03975989 0.070020415 0.06789002 -0.077688545
000080 3a c0 81 bd b9 f0 e2 bc 98 46 0d 3d 30 d8 1e 3c
       -0.063354924 -0.027702676 0.03449115 0.009695098
000090 59 de a8 bd 19 88 8e bd ed 65 1c bd 8e 9c d7 3c
       -0.082455344 -0.06959552 -0.03818314 0.026319768
0000a0 6f e4 3f 3d df bd 79 bd 78 86 19 3d 21 69 0c bd
       0.04684871 -0.06097209 0.037481755 -0.034279946
0000b0 a6 62 66 bd c1 88 02 bd 6e 07 93 bb 50 23 02 bc
       -0.056246422 -0.0318687 -0.0044869697 -0.0079429895
0000c0 ae d9 8c bd 19 ca 29 bc c0 65 c3 bc 13 3c 1a 3d
       -0.068774566 -0.010363125 -0.02385223 0.037654947
0000d0 e7 10 8a 3d 84 05 8f 3d 5e 43 4f 3d a8 a3 61 3d
       0.06741505 0.06983474 0.050601356 0.055087715
0000e0 e4 37 23 bd 3b 71 69 bd 8d b3 88 bd 46 a9 38 bd
       -0.039848223 -0.05699275 -0.066748716 -0.045083307
0000f0 67 10 96 3d f8 85 db bb 0c d5 7c 3d 43 a1 f4 3c
       0.07327347 -0.00669932 0.061726615 0.029862052
000100 3f b6 43 3d c9 c5 b3 bc ff 5f 3c 3d 70 7c 57 3d
       0.047781225 -0.021944897 0.045989987 0.052608907
000110 9e b8 60 bc a2 81 60 bd 99 4a 3e bc 8f 1f 81 3d
       -0.013715891 -0.054811127 -0.011614465 0.063048474
000120 cf 3d 84 bd 23 5e d2 bc 37 70 87 bd 8f fd 9c bc
       -0.064571016 -0.025679654 -0.066132 -0.019163875
000130 22 da 25 3d d0 1d 5d bd 56 a1 9f bd ff ae 71 3d
       0.04049123 -0.05398351 -0.07794444 0.05900478
000140 1a 6b a5 bc e3 a4 f8 3c ba 9b 4e bc 0d 94 35 3d
       -0.020192672 0.030352062 -0.01261037 0.044330645
000150 e4 5a 85 bd 3e e2 f8 bb 1e 32 c2 bc a8 e7 ec bc
       -0.06511477 -0.0075953295 -0.023705538 -0.028919056
000160 74 5a 6d bd 4b 55 84 bd b2 72 85 3b f2 b4 10 3d
       -0.05794759 -0.06461581 0.0040725106 0.035328813
000170 93 3f 70 3d c7 48 87 bc 51 7d 1c 3d 68 05 76 bc
       0.05865438 -0.016514195 0.03820545 -0.015015937
000180 51 d7 96 bd b3 e5 74 3b 6d 0a 36 bd 22 f2 19 3d
       -0.07365287 0.0037368357 -0.044443537 0.03758443
000190 92 2c 20 3d 33 24 32 3d 7a f7 1a bd 3c 9a 60 bd
       0.039105006 0.043491554 -0.03783367 -0.05483459
0001a0 9a 35 99 3c c9 dd 42 ba 1c 2a 72 3d 07 e4 61 3c
       0.018702317 -0.0007433561 0.05912219 0.013787276
0001b0 0f da 88 3c b3 c8 65 3d 42 c6 17 3d 19 89 42 3b
       0.016705541 0.056099605 0.037054308 0.0029683767
0001c0 50 c8 3c 3a 05 8b 68 3d c6 d8 57 bc 00 55 94 bd
       0.000720148 0.056773204 -0.013174241 -0.07242775
0001d0 3a 56 3b 3d 11 ef 11 3b 8c 00 8d 3c 5c 0b 2a 3c
       0.04573653 0.0022267739 0.017212175 0.010378685
0001e0 24 b0 d1 3c 6e 65 a8 3d 81 cb 3f 3d 21 15 2a 3d
       0.025596686 0.08222471 0.046824936 0.041524056
0001f0 cf 61 8a bb 08 18 32 bd 2d 7d 5f 3d bb 50 6d bc
       -0.0042230855 -0.04347995 0.054562736 -0.01448458
000200 42 1b 65 bd 21 bc 9f bc 56 1f 68 3d 0b 45 99 bc
       -0.0559342 -0.019498887 0.05667051 -0.01870968
000210 8b 46 51 bd d7 56 39 bd 29 88 14 bc 90 9a 96 3d
       -0.051092666 -0.045248833 -0.009065666 0.07353699
000220 8f 98 50 3c 3c b8 9f 3d b2 73 94 3d 3a 17 ef bc
       0.012731685 0.07798812 0.0724863 -0.02918588
000230 06 10 5f 3d 15 8f fe 3c 37 9b 95 3d ea 13 ab bb
       0.05445864 0.031074086 0.073049955 -0.00522088
000240 0c 5c 41 3c 7e 95 9c bd 29 99 c6 bc f7 b7 7b bd
       0.011801731 -0.07645701 -0.024242954 -0.06145474
000250 40 b4 5f 3c 53 ec 90 bc 13 c9 3a bd 7f 0b 3f 3d
       0.013653815 -0.017690813 -0.045601916 0.046641823
000260 d8 b0 ab 3a 71 04 9c 3c 05 eb 45 3c f6 60 d5 bb
       0.0013098968 0.019045087 0.012079959 -0.006511803
000270 62 3c 0d 3c 21 ed fe 3c 85 10 5d bd 43 e5 70 bc
       0.008620353 0.031118931 -0.053970832 -0.014703098
000280 76 d1 68 bd fe e1 d3 bb 7b f4 03 3c 77 54 88 bd
       -0.056840383 -0.0064661494 0.008053894 -0.066567354
000290 e1 ae 8b 3d 26 d1 6c bd da 60 5b 3d 48 52 be ba
       0.06820465 -0.057816647 0.05355916 -0.0014520371
0002a0 f0 21 61 3d c4 5d 58 bd f0 ca 98 bd 03 ef 2b 3d
       0.054964006 -0.052823797 -0.07460582 0.041975986
0002b0 9c 7f 3c bd 70 21 50 bd 54 dd 87 3d e7 ad 3d bd
       -0.046020135 -0.05081314 0.06634012 -0.046308424
0002c0 cb db 8f bc 9d 4a 2d bd 1a 09 bc bc a2 f1 40 bc
       -0.01756086 -0.042307485 -0.022953559 -0.01177636
0002d0 4e ec 9c bb 2f a8 80 3d 85 85 71 3d 8e 08 7b 3c
       -0.004788912 0.062820785 0.058965225 0.015321864
0002e0 5f 1a d5 bc 0b f7 2e bd e7 8b 25 3b 7a aa 4f bd
       -0.026013551 -0.042716067 0.002526039 -0.05069969
0002f0 59 2c 11 bc 15 4d 95 3d de 51 ab 3c dc bf 1e bc
       -0.008860671 0.07290093 0.02091306 -0.0096892975
000300 8d c2 da bc e3 65 3e bc f9 81 8a 3d 81 40 0e 3d
       -0.026704097 -0.011620971 0.067630716 0.034729484
000310 1f 13 94 bc d5 7e a6 bb 4d b2 1d bc 75 82 8d bd
       -0.018075524 -0.0050810375 -0.00962503 -0.06909648
000320 3e 05 8e 3d 82 71 2e bd 81 88 78 3d 0d 30 b3 bd
       0.069345936 -0.04258872 0.060677055 -0.08749399
000330 64 83 53 bb 4a 60 ec bc ab 13 a8 3d 53 34 20 3d
       -0.003227436 -0.028854508 0.08206876 0.0391124
000340 4d f9 b0 bd 0c c5 0f 3d 90 fd 75 3d 0e 2a 43 3d
       -0.086413 0.035100028 0.06005627 0.04764753
000350 92 ad ca bc 90 80 af 3c d5 7a 3b bc 65 c0 69 bb
       -0.024740968 0.021423608 -0.01144286 -0.0035667655
000360 3f f3 cb bc bb 69 3e 3d 7d 54 a1 3c 40 a7 66 3d
       -0.024896262 0.04648755 0.019693607 0.056311846
000370 87 f2 a3 3d d3 22 b1 3b 63 71 50 bc bb 56 b0 3c
       0.08005243 0.0054057627 -0.012722346 0.021525731
000380 7a 5c ae bc 9e 70 24 bc 8c 55 5f 3d a5 e8 6a 3d
       -0.02128433 -0.010036616 0.054524943 0.057350773
000390 38 9d a0 3d 7d 97 35 3c 70 e0 a6 bb 6b 14 67 bc
       0.07842487 0.011083481 -0.005092673 -0.014103989
0003a0 c6 1f 49 bd 15 3e 1a bc cb d3 4e 3d 27 10 25 bd
       -0.049102567 -0.009414216 0.05049495 -0.040298607
0003b0 ba b8 13 3d 4d 74 42 bd 92 9d 3d bd d8 59 9d 3d
       0.03606484 -0.047474194 -0.04629285 0.07683152
0003c0 70 38 d1 3c 2b 69 72 bd a6 93 21 3d 01 ef 29 bc
       0.025539607 -0.059182327 0.03944745 -0.010371924
0003d0 a6 f6 8f 3c ad b8 c4 bc 87 a0 63 bd bf 63 34 bc
       0.017573666 -0.024013842 -0.055573013 -0.011010109
0003e0 04 52 3b 3c c9 b2 16 bd fb 45 44 bc e7 7b 48 3d
       0.011433128 -0.036791597 -0.011979575 0.048946287
0003f0 ce 11 31 bd 3e 30 96 bd 41 cc 3a bd f3 f2 27 3d
       -0.04322987 -0.0733342 -0.045604948 0.04100318

weights.1.bias f4 [21]
000000 6c 88 7e bc 1b 8a 83 3b 3a b7 6c bd ea ed 39 3c
       -0.015535455 0.004014266 -0.057791926 0.011348227
000010 fa 00 4b 3c d7 8e ad 3d 3f 5e 32 bd cc 38 1e bd
       0.01239037 0.0847451 -0.04354691 -0.038628384
000020 47 cc 43 bd 6e 18 4c 3d 55 cf fe bc 03 8a de bc
       -0.047802236 0.049827985 -0.031104723 -0.027165418
000030 64 b2 fb 3c 3b 94 1b bd 03 8c 8f 3d 3a f2 1b bc
       0.030724712 -0.03798316 0.07009127 -0.0095182005
000040 d2 95 62 bc 3f 32 f9 bb b6 80 94 3d 7d af 99 3d
       -0.013829665 -0.0076048668 0.07251112 0.07504175
000050 ed 2e bd bc
       -0.023093665

weights.2.weight f4 [2, 21]
000000 08 af 04 3e 0d 16 f9 3c 52 c2 de bd 95 7d b4 3d
       0.12957394 0.030406022 -0.108769074 0.08813015
000010 2f 2b 28 be 57 e1 03 be 8c b3 08 be 0f 0a be bc
       -0.16422723 -0.12878929 -0.13349742 -0.023198156
000020 f2 0a 59 3e c7 c7 f8 bd 33 01 23 3e c5 3d 04 bd
       0.21195582 -0.121474795 0.15918426 -0.03228547
000030 91 23 b5 bd 4b 2c 5b 3e 12 0f 59 be 29 75 c3 3d
       -0.088446744 0.21403615 -0.21197155 0.09543831
000040 98 34 4b 3e 5b 19 4f 3e 3b ce 33 3e 3c 63 10 bd
       0.19844282 0.20224516 0.1755914 -0.035250887
000050 08 be 66 bd 1c 0f 48 be 84 2b 22 be 73 b7 d9 3d
       -0.05633357 -0.19537014 -0.15836912 0.10630693
000060 b8 8a eb bc 19 88 98 bd bc 86 fb bc 39 57 44 be
       -0.02875267 -0.074478336 -0.030703895 -0.19173898
000070 ae a7 46 be ec 2c ec bd 19 88 44 3c 4b 2b 37 be
       -0.19399902 -0.11532006 0.011995339 -0.17887609
000080 24 8a 0b be a3 f6 0d 3d 2e 72 d8 bd 8a f4 b3 bd
       -0.13626915 0.03465904 -0.10568653 -0.087868765
000090 a4 62 5f bd 70 48 5a be ef b7 35 3e 12 65 a8 3d
       -0.05453743 -0.21316695 0.17745946 0.08222403
0000a0 44 6c 04 be 91 c1 49 be
       -0.12931925 -0.19702746

weights.2.bias f4 [2]
000000 c5 e5 cc 3d 08 8f 57 3d
       0.100047626 0.05262664

weights.3.weight f4 [1, 2]
000000 28 79 b5 be 42 65 66 bd
       -0.35443997 -0.05624891
